nn_base/net.model (torch, 46432 bytes, 6 tensors)

input_to_hidden.weight f4 [128, 18]
0	0xbe1c3c80	-0.15257454
1	0x3f430077	0.76172584
2	0x3f146334	0.5796387
3	0x3f107415	0.5642713
4	0xbf2dea47	-0.67935604
5	0x3f2fd983	0.6869127
6	0xbee24433	-0.44192657
7	0x3f5e03dc	0.8672464
8	0xbee5a5ac	-0.4485296
9	0x3ee22da9	0.4417546
10	0xbed41602	-0.4142304
11	0x3f256a59	0.646154
12	0xbec92230	-0.39283895
13	0x3c2a6998	0.010401152
14	0xbf12a1df	-0.57278246
15	0xbebcf137	-0.36902782
16	0x3e661395	0.22468407
17	0xbfd4c2ed	-1.6621987
18	0xbf959978	-1.168746
19	0xbefbc4f1	-0.49173692
20	0x3e9a5b15	0.30147615
21	0x3e9bce0f	0.30430648
22	0xbd08e692	-0.033423014
23	0xbdb24988	-0.08705431
24	0xbedaad95	-0.42710558
25	0xbf8e7f6a	-1.1132634
26	0x3e8cadf7	0.27476475
27	0xbf2580a9	-0.64649445
28	0xbe77cd6d	-0.24199457
29	0xbf84a0b2	-1.036154
30	0x3f90a6de	1.1300924
31	0xbef927dc	-0.48663223
32	0x3ca8861f	0.020571766
33	0x3e099c8b	0.13438623
34	0x3f91ba46	1.1384971
35	0x3f747adb	0.9549996
36	0x3e174b22	0.14774755
37	0xbeb00127	-0.3437588
38	0xbf6f8fd1	-0.9357882
39	0x3e1dca2f	0.15409158
40	0x3df064a0	0.11737943
41	0x3eb8f424	0.36123765
42	0xbf492be4	-0.78582597
43	0x3dcfd6c0	0.10148382
44	0x3f8a6c90	1.0814381
45	0xbe1600e2	-0.14648774
46	0x3f3d4409	0.7393194
47	0x3e02ebbc	0.12785238
48	0x3f5769d8	0.8414588
49	0xbf474b7c	-0.77849555
50	0x3f46da9a	0.7767731
51	0xbf6a2f1b	-0.9147813
52	0x3f43fe56	0.7655996
53	0x3f4e7204	0.80642724
54	0x3e94624e	0.2898125
55	0x3e9b291c	0.303048
56	0xbf3c36a7	-0.7352089
57	0xbe10074e	-0.14065287
58	0xbf8be428	-1.0929003
59	0x3f3f3c2f	0.7470121
60	0xbec4c1fb	-0.38429245
61	0x3f447d6a	0.76753867
62	0x3dfa7043	0.122284435
63	0xbf8139b2	-1.0095732
64	0x3f44f0e6	0.7693008
65	0x3e5feffc	0.2186889
66	0xbee41cda	-0.44553262
67	0xbe30fb88	-0.17283452
68	0xbeed5a27	-0.46357843
69	0xbecaeaec	-0.39632356
70	0xbf2f92bf	-0.6858329
71	0xbf2c767b	-0.67368287
72	0x3f266417	0.64996475
73	0x3cfbd103	0.030739313
74	0x3f81af9a	1.0131714
75	0x3d861098	0.06546134
76	0xbe3de830	-0.18545604
77	0x3e041669	0.12899174
78	0xbf9503ba	-1.1641762
79	0xbe8b9478	-0.2726171
80	0xbf0b049f	-0.54303926
81	0x3eab308f	0.33435485
82	0x3de49ed1	0.11163104
83	0xbf9ac3fa	-1.2091057
84	0xbf4048ac	-0.7511089
85	0xbfd3adcf	-1.6537417
86	0xbeb566e3	-0.3543006
87	0xbdd9d1a9	-0.106356926
88	0xbf11f924	-0.57020783
89	0xbefad4fb	-0.48990616
90	0x3db015da	0.08597918
91	0xbf18e177	-0.5971903
92	0x3f2691db	0.6506631
93	0xbf6a8b6b	-0.91618985
94	0x3ed09384	0.40737545
95	0xbf610fa5	-0.87914497
96	0x3ce96229	0.02848919
97	0x3f75eea4	0.9606726
98	0x3f92d96d	1.1472603
99	0xbd1fd4c9	-0.039021287
100	0x3fa77568	1.3082705
101	0xbfca4b27	-1.5804185
102	0xbeb86885	-0.36017242
103	0xbf40582f	-0.7513456
104	0xbef0c40f	-0.4702458
105	0xbf10b43e	-0.5652503
106	0x3f058572	0.52156746
107	0x3e007ca5	0.12547548
108	0xbf24b0fc	-0.64332557
109	0xbeb071e0	-0.3446188
110	0xbfa20e50	-1.2660618
111	0x3ee337ad	0.44378415
112	0xbf17391d	-0.5907152
113	0xbef6668f	-0.4812512
114	0xbe289161	-0.16461708
115	0xbf1436a4	-0.57895875
116	0xbf52e7f5	-0.8238519
117	0xbdae2185	-0.08502487
118	0xbf22da85	-0.63614684
119	0xbe954831	-0.2915664
120	0xbf2ac79e	-0.6671084
121	0xbfba7a58	-1.4568586
122	0x3fa10e14	1.2582421
123	0xbf104ad6	-0.5636419
124	0x3f257c2b	0.6464259
125	0x3df65fb5	0.120299734
126	0x3eda0794	0.42583907
127	0xbfac8d35	-1.3480593
128	0x3f1270cd	0.5720337
129	0xbec6c6f1	-0.38823655
130	0x3ed7b01b	0.42126545
131	0x3edcd1dd	0.43128863
132	0x3f1f32e8	0.6218705
133	0xbc18ff73	-0.009338248
134	0xbe123731	-0.14278866
135	0xbf1cb1c5	-0.61208755
136	0xbe872828	-0.26397824
137	0xbe3b11cc	-0.18268508
138	0x3fc9325e	1.5718496
139	0xbf3d11ed	-0.7385548
140	0xbe496ad6	-0.19669661
141	0x3d5b0298	0.05346927
142	0x3ebf75cd	0.37394562
143	0x3f39095e	0.7227992
144	0xbecf0c3e	-0.40439028
145	0xbf0b9cfb	-0.5453641
146	0xbeb9fc32	-0.36325222
147	0x3f012ce3	0.50459117
148	0x3f4c277a	0.79747736
149	0x3f70f6d2	0.9412662
150	0x3f5d0e97	0.8635039
151	0x3f26f735	0.6522096
152	0xbf5a4d20	-0.85273933
153	0x3f306226	0.6889976
154	0xbead9bb3	-0.33907852
155	0xbd4d24f3	-0.050084066
156	0x3f792d54	0.9733479
157	0x3f37cf0d	0.7180031
158	0xbd3eb211	-0.046556536
159	0xbf81d668	-1.0143557
160	0xbe80fc4b	-0.25192484
161	0xbf59c4d3	-0.85065955
162	0x3f26cf1e	0.65159786
163	0xbf4ff8ad	-0.81238824
164	0xbf6febd9	-0.9371925
165	0x3ea44a6e	0.32088035
166	0x3f094e5b	0.53635186
167	0x3f0791ac	0.5295665
168	0x3ef68a97	0.4815261
169	0xbf0f99bc	-0.56093955
170	0xbf36ae07	-0.71359295
171	0x3d4c7669	0.049917612
172	0x3c428d3f	0.011874496
173	0x3eaabee0	0.3334875
174	0xbf6c361c	-0.92270064
175	0xbf1e85e3	-0.61923045
176	0x400c0843	2.1880043
177	0x3e22be25	0.15892847
178	0x4012cfd2	2.2939343
179	0xbd38f665	-0.045156855
180	0xbefab8f8	-0.48969245
181	0x3f4237c5	0.7586635
182	0x3f940b7b	1.1566004
183	0xbeaeebaf	-0.34164187
184	0x3dbfe497	0.09369772
185	0xbe804dde	-0.25059408
186	0xbf3321bc	-0.6997335
187	0x3f5ed94c	0.8705032
188	0xbeddbdfa	-0.43309003
189	0xbf916105	-1.1357733
190	0x3f55050c	0.83210826
191	0x3e0356ff	0.12826155
192	0xbe1608c3	-0.1465178
193	0x3ec6fa23	0.38862714
194	0x3df4d418	0.11954516
195	0x3eff077a	0.49810392
196	0x3f723c31	0.94623095
197	0xbf83b5de	-1.0289876
198	0x3f040f5c	0.51585937
199	0x3db4979c	0.0881798
200	0x3f115d16	0.5678266
201	0xbec8f923	-0.39252576
202	0x3daaea5b	0.08345481
203	0x3f0424cd	0.51618654
204	0x3e828d83	0.2549859
205	0xbef84098	-0.4848678
206	0xbe8f648f	-0.28006408
207	0x3ee55fac	0.44799554
208	0x3d86420f	0.065555684
209	0x3ef85d6e	0.4850878
210	0xbe06b645	-0.13155468
211	0x3f5eac2a	0.8698145
212	0xbf5a9f93	-0.8539974
213	0x3e86d607	0.26335165
214	0x3f84cba7	1.037465
215	0xbf9c69de	-1.2219808
216	0x3f24146c	0.6409366
217	0x3f682e7e	0.9069594
218	0x3f2f9ed3	0.6860172
219	0x3ed545d4	0.41654837
220	0xbe85d661	-0.2614012
221	0x3f7acea6	0.9797157
222	0x3ec1fcd0	0.37888193
223	0xbf7de1b2	-0.9917251
224	0x3f3ff080	0.7497635
225	0x3f5450de	0.82935894
226	0xbf587cc9	-0.8456541
227	0xbd805913	-0.062669896
228	0xbef80dc5	-0.48448005
229	0x3edf89fc	0.4365996
230	0x3eccd045	0.40002647
231	0xbfde7bdd	-1.738155
232	0xbe7b363e	-0.2453241
233	0x3f0fb0ca	0.56129134
234	0xbef734e5	-0.48282543
235	0x3f9159b1	1.1355497
236	0xbe5d01c2	-0.21582702
237	0xbe72617b	-0.23669998
238	0x3ec5fcae	0.38669342
239	0xbe86342f	-0.26211688
240	0x3e915932	0.28388363
241	0xbf8cf2ab	-1.1011556
242	0xbea66f0a	-0.3250659
243	0x3fa391f5	1.2778918
244	0xbee7dab0	-0.45284033
245	0x3e1f5ba3	0.155623
246	0xbedd7c7f	-0.43259045
247	0xbea49121	-0.32141975
248	0xbfa752b6	-1.3072116
249	0x3e862f39	0.26207903
250	0xbe8712f6	-0.26381654
251	0x3e86f32d	0.26357403
252	0x3f132f92	0.5749446
253	0x3f1cca1c	0.61245894
254	0x3f34ee49	0.70676094
255	0xbedc2537	-0.42997143

input_to_hidden.bias f4 [128]
0	0x3e5fc749	0.21853365
1	0xbdff941d	-0.12479422
2	0x3ebd5587	0.36979315
3	0x3c54d012	0.012989061
4	0x3ea1265d	0.3147458
5	0xbef17596	-0.47160023
6	0x3e89532e	0.26821274
7	0x3e8241d1	0.2544084
8	0xbeb173fd	-0.34658805
9	0xbcb46c86	-0.022024404
10	0x3e1775d9	0.14791049
11	0x3f0c6b92	0.5485164
12	0xbecd4f67	-0.40099642
13	0x3bb0a1b7	0.0053903717
14	0x3eaf3e1b	0.3422707
15	0x3eb02018	0.34399486
16	0xbd0ae938	-0.03391382
17	0x3ebdc903	0.37067422
18	0x3cf29177	0.029610379
19	0x3ea9cfa1	0.3316622
20	0xbe6ba13f	-0.23010729
21	0xbe9b0dc7	-0.3028395
22	0xbe939150	-0.28821802
23	0xbe3c15f1	-0.18367745
24	0x3e125734	0.14291078
25	0x3f099a94	0.5375149
26	0x3f13e158	0.5776572
27	0x3e231141	0.1592455
28	0xbca957c4	-0.020671733
29	0x3e8dbc11	0.27682546
30	0x3ebb1017	0.36535713
31	0xbe2b42aa	-0.16724649
32	0x3f142412	0.5786754
33	0x3e8a9f71	0.2707477
34	0x3eca9d2d	0.3957304
35	0x3e1b1fcd	0.1514885
36	0x3e54ca8b	0.20780389
37	0x3e6c57f2	0.23080423
38	0x3eb62773	0.35576972
39	0x3e8e25f5	0.27763334
40	0x3ece25eb	0.40263304
41	0x3e02e0c1	0.1278105
42	0x3f004723	0.50108546
43	0x3e223710	0.15841317
44	0xbc465121	-0.012104304
45	0xbe3e6cd6	-0.18596205
46	0x3ef36a45	0.47542015
47	0x3df37167	0.11886864
48	0x3e075fed	0.13220187
49	0x3e654462	0.22389367
50	0x3eb014cc	0.34390867
51	0x3e019a04	0.12656409
52	0xbdc88591	-0.09791101
53	0x3eead302	0.4586411
54	0x3e4a5507	0.19758998
55	0x3e46340b	0.1935579
56	0x3e91a430	0.28445578
57	0xbd92abcd	-0.07161675
58	0x3ca663bc	0.020311229
59	0x3d55c077	0.052185502
60	0x3e14c265	0.1452728
61	0x3f0ce982	0.55043805
62	0x3e87508f	0.2642865
63	0xbe7eb38e	-0.24873182
64	0xbe5e4e89	-0.21709646
65	0x3c912f7c	0.017722838
66	0x3e40d73c	0.18832105
67	0x3ea91401	0.33023074
68	0x3e53831e	0.20655486
69	0x3eba6fec	0.36413515
70	0x3e44a019	0.19201697
71	0x3ecdb768	0.4017899
72	0x3e509a52	0.20371369
73	0xbde04d81	-0.10952283
74	0x3ebe2f31	0.3714538
75	0x3ea0335a	0.31289178
76	0xbd886b74	-0.0666112
77	0xbe43241c	-0.19056743
78	0x3eadb0c9	0.3392394
79	0x3e17af55	0.14812978
80	0x3edc3633	0.430101
81	0x3e032ff1	0.12811257
82	0xbe293dab	-0.1652743
83	0x3e221ae8	0.15830576
84	0x3ee83edd	0.4536046
85	0x3edfcab3	0.43709335
86	0x3e418c59	0.18901195
87	0xbe8ea5b2	-0.2786079
88	0x3eb128b7	0.34601375
89	0xbdcf9aaf	-0.101369254
90	0x39443d5b	0.00018714873
91	0xbd50a93b	-0.05094264
92	0x3f3370d3	0.7009403
93	0xbbaceb8f	-0.005277104
94	0xbe0c902b	-0.1372687
95	0xbc9b7b07	-0.018979562
96	0x3e267e4c	0.16259116
97	0x39c3d280	0.00037350133
98	0xbe69814c	-0.22803229
99	0x3e28062e	0.16408607
100	0x3d6fc046	0.058532976
101	0x3e348a73	0.17630939
102	0xbbc285cd	-0.0059363605
103	0x3db67e16	0.08910768
104	0x3e9602c7	0.29298994
105	0x3e8fe9f5	0.28108183
106	0x3e6a7586	0.22896394
107	0x3eb7d00e	0.3590092
108	0x3c1f5a55	0.009726127
109	0x3e62bd15	0.22142442
110	0xbe0d97ce	-0.1382744
111	0x3ebb70ea	0.36609584
112	0xbe1e9bfc	-0.15489191
113	0x3e981e77	0.29710743
114	0x3e9ff2cf	0.31239936
115	0xbe081757	-0.13290153
116	0x3e183d66	0.14867172
117	0xbd6dd531	-0.058064643
118	0x3eed5b7a	0.46358854
119	0x3e94d92b	0.29071936
120	0xbda17706	-0.0788403
121	0xbb5b324c	-0.0033446727
122	0x3d361b57	0.044459667
123	0xbe867a3f	-0.2626514
124	0xbd52ebc3	-0.05149437
125	0x3e8f5ed2	0.2800203
126	0xbebcc4b3	-0.3686882
127	0xbe246880	-0.16055489

inter_layer.weight f4 [64, 128]
0	0xbe0f2d7a	-0.13982192
1	0x3f329ad4	0.697675
2	0xbd60afd0	-0.054855168
3	0xbf288128	-0.65822077
4	0xbde9734e	-0.11398946
5	0x3ec199a3	0.37812528
6	0x3d29b3ee	0.04143136
7	0xbcc6b4bc	-0.024256103
8	0x3f5b3d8a	0.85640776
9	0x3e5ea3da	0.21742192
10	0xbeffacc9	-0.49936512
11	0xbe83b20c	-0.25721776
12	0xbf5df3d1	-0.8670016
13	0x3dc86ce8	0.09786397
14	0xbec5b446	-0.386141
15	0xbd4ea362	-0.050448783
16	0x3eac69ce	0.33674473
17	0xbe1a7d20	-0.15086794
18	0xbe92170c	-0.28533208
19	0x3c896367	0.016771032
20	0x3f54f344	0.83183694
21	0x3f56f7ea	0.83972037
22	0x3e53574c	0.2063877
23	0xbfc279ca	-1.5193417
24	0x3ed0b8fb	0.4076613
25	0xbf2cdbc1	-0.6752282
26	0xbdbec92a	-0.09315713
27	0x3ef7bb2b	0.48384985
28	0x3ee86d31	0.45395806
29	0xbe425328	-0.18977034
30	0x3e11ec4b	0.14250295
31	0x3ed06b71	0.4070697
32	0xbf5e2a57	-0.86783355
33	0xbea98aa9	-0.33113602
34	0xbeb9d841	-0.362978
35	0xbf722bdf	-0.9459819
36	0x3e9cfcff	0.3066177
37	0xbee630cf	-0.44959113
38	0x3cbca658	0.023028538
39	0x3e86b223	0.26307783
40	0xbed1a3a9	-0.40945175
41	0x3f2807d9	0.65636975
42	0xbef2c2d9	-0.47414282
43	0x3e81040d	0.25198403
44	0x3f19753f	0.5994453
45	0x3f04afd7	0.5183081
46	0xbee02e3c	-0.43785274
47	0x3ed025de	0.4065389
48	0x3f0a4a23	0.54019374
49	0xbf452c51	-0.77020746
50	0x3db97ada	0.09056635
51	0x3e6c411e	0.23071715
52	0x3e932c77	0.2874486
53	0xbdcd992f	-0.10038983
54	0xbe8f1ea2	-0.27953058
55	0x3ecf66c8	0.40508103
56	0xbe306bfc	-0.17228693
57	0x3e769cab	0.24083202
58	0xbf2f986e	-0.68591964
59	0xbe1c0b24	-0.15238625
60	0xbf5dfbdd	-0.8671244
61	0xbeecfff4	-0.46289027
62	0xbda7c079	-0.08191008
63	0x3f40ce62	0.75314915
64	0x3f5e913c	0.8694036
65	0x3d79ff51	0.061034504
66	0x3e8bdeb1	0.27318338
67	0xbeab314a	-0.33436042
68	0xbdb48e31	-0.08816183
69	0xbf82b439	-1.021125
70	0x3ecb190e	0.39667553
71	0x3dea4dd0	0.11440623
72	0xbd27449c	-0.040836915
73	0x3f5e218d	0.86769944
74	0xbe70b4fe	-0.23506543
75	0x3dab195e	0.08354448
76	0x3f45305a	0.77026904
77	0xbe2e9946	-0.17050657
78	0x3e5e0e68	0.21685183
79	0x3efc33fc	0.4925841
80	0xbe52d5b5	-0.20589335
81	0x3edb2510	0.42801714
82	0x3e8b8065	0.27246395
83	0xbf920476	-1.1407611
84	0xbe97d96a	-0.2965806
85	0xbd1ad6e7	-0.037802603
86	0xbe8246dd	-0.2544469
87	0x3f1b9b0f	0.60783476
88	0x3ebffa3b	0.37495598
89	0x3ee50c4c	0.44735944
90	0x3edacab0	0.42732763
91	0x3f4b0c7e	0.79315937
92	0x3e1280fb	0.14307015
93	0x3e4b34ef	0.19844411
94	0xbcc4d8fe	-0.024029251
95	0x3f7f1d30	0.9965391
96	0xbec39632	-0.38200527
97	0xbf057bbb	-0.5214192
98	0x3ed8d6f5	0.423515
99	0x3eae848e	0.34085506
100	0xbebc57bf	-0.36785695
101	0x3e4edebc	0.20202154
102	0x3f136767	0.57579654
103	0x3e7322a2	0.2374368
104	0xbeec5e7e	-0.46165842
105	0x3e4ca0db	0.19983236
106	0x3eea791d	0.45795527
107	0x3e19f2b6	0.15033993
108	0xbf1c9d48	-0.6117749
109	0xbe2f70c4	-0.1713286
110	0x3eb3a6f4	0.35088313
111	0xbf696023	-0.9116232
112	0xbeade486	-0.33963412
113	0x3d3959e4	0.045251742
114	0x3e4679a9	0.19382347
115	0xbf1d031f	-0.6133289
116	0x3f52a47f	0.8228225
117	0xbea57307	-0.3231432
118	0xbef72c23	-0.4827586
119	0xbf8026f5	-1.0011889
120	0x3ed316a9	0.41228226
121	0x3d620ac7	0.05518606
122	0x3efa6e97	0.48912498
123	0xbf244430	-0.64166546
124	0x3eb9f030	0.3631606
125	0xbd6bf43d	-0.05760597
126	0x3f75553d	0.9583319
127	0x3f1b89f6	0.60757387
128	0xbf252c84	-0.6452105
129	0xbe13114b	-0.14362065
130	0xbf0a503a	-0.54028666
131	0x3ea90396	0.33010548
132	0x3ed7de9d	0.42162028
133	0xbda8bfa1	-0.08239675
134	0xbf4371ef	-0.76345724
135	0xbe1c46db	-0.15261404
136	0xbf39610e	-0.7241372
137	0x3f12c0db	0.57325524
138	0xbd933867	-0.07188492
139	0xbc9a96ff	-0.018870829
140	0xbf4e9745	-0.8069957
141	0x3e4ab38e	0.19795057
142	0xbe7072e7	-0.23481332
143	0x3eab3c36	0.33444375
144	0xbf254062	-0.64551365
145	0x3dee2853	0.11628785
146	0x3d2b02c3	0.04175068
147	0xbe3b9a69	-0.18320622
148	0x3f232b2d	0.63737756
149	0x3ebc8f52	0.36828095
150	0xbe6b1a20	-0.22959185
151	0x3f2430ca	0.64136946
152	0xbf13f83f	-0.5780067
153	0x3ebb50e1	0.36585143
154	0x3e80d4f3	0.25162467
155	0xbe9c4fb7	-0.30529568
156	0x3e63de33	0.22252731
157	0x3dddaa51	0.10823501
158	0x3ee81c85	0.4533426
159	0x3fa425e3	1.2824062
160	0xbe9ec295	-0.3100783
161	0x3f4774bc	0.779125
162	0xbe05c7ec	-0.13064545
163	0xbceaf1d0	-0.028679758
164	0x3f0a1df0	0.5395193
165	0xbe656e7f	-0.22405432
166	0x3d2217dd	0.03957354
167	0xbf36c674	-0.71396565
168	0x3d00b5d4	0.031423405
169	0xbf8bfd59	-1.093669
170	0xbf3c5497	-0.73566574
171	0xbc02bcdb	-0.007979597
172	0xbe8bcefd	-0.27306357
173	0x3d486ba0	0.048930764
174	0x3e80b9d9	0.2514179
175	0x3df8b5be	0.121440396
176	0xbf20df6f	-0.6284093
177	0xbe34161a	-0.17586556
178	0x3f293a3f	0.661045
179	0x3ef71fef	0.4826655
180	0x3f05c162	0.52248204
181	0x3e074d73	0.13213138
182	0x3e6c5ea7	0.23082982
183	0xbd426dd2	-0.047468014
184	0xbdea58b1	-0.11442698
185	0x3e448a19	0.19193305
186	0x3e0ab978	0.13547313
187	0x3ec923d3	0.39285144
188	0x3ebf1def	0.37327525
189	0xbe25da1e	-0.16196486
190	0x3dc2a502	0.09504129
191	0xbd8ea433	-0.06964912
192	0x3ee2d566	0.44303435
193	0xbe24bbde	-0.1608729
194	0x3e26b6f8	0.16280735
195	0x3d8b5419	0.0680315
196	0x3ef33240	0.47499275
197	0x3eb2023d	0.34767333
198	0xbec10f75	-0.37707105
199	0xbe498f01	-0.19683458
200	0x3edbcb4d	0.42928544
201	0xbd079736	-0.03310319
202	0x3e0a16b1	0.13485219
203	0xbf1bc3cd	-0.60845643
204	0x3eb6ca91	0.3570142
205	0xbe5d0d0f	-0.21587013
206	0xbed7843d	-0.42093077
207	0xbf72d288	-0.94852495
208	0x3d8867d2	0.06660427
209	0xbec4e22b	-0.38453802
210	0x3f0c7320	0.54863167
211	0x3e098470	0.13429427
212	0x3e13568b	0.14388482
213	0xbe03b0a3	-0.1286035
214	0xbe5b4f62	-0.21417001
215	0x3fbaac19	1.458377
216	0xbf442a06	-0.7662662
217	0xbe50e6f0	-0.20400596
218	0xbf0d3e19	-0.5517288
219	0x3f3db9df	0.7411174
220	0xbebddbf3	-0.3708187
221	0xbe21c146	-0.15796384
222	0xbf9d7e44	-1.2304158
223	0xbf626dd2	-0.8844882
224	0x3dc052a0	0.093907595
225	0x3f5271d3	0.8220493
226	0x3db65a7a	0.08903976
227	0xbed45b49	-0.41475895
228	0xbf05d634	-0.52279973
229	0xbf97ce1d	-1.1859776
230	0xbed48ec8	-0.41515183
231	0x3f445ead	0.76706964
232	0x3f12036b	0.57036465
233	0x3f3e71ba	0.7439228
234	0xbec0bc3e	-0.37643617
235	0xbec8ff82	-0.39257437
236	0x3eadf572	0.33976322
237	0x3dac42cd	0.08411179
238	0x3e885469	0.266269
239	0x3e2c6848	0.16836655
240	0x3f45a329	0.7720209
241	0x3ee1451f	0.43998048
242	0xbcf0a759	-0.029376673
243	0x3e8050c4	0.2506162
244	0xbf301854	-0.6878712
245	0x3ed45a0e	0.41474956
246	0x3e99af3b	0.30016503
247	0xbe33f1f8	-0.17572773
248	0xba9bdd06	-0.0011891432
249	0xbc59966d	-0.013280493
250	0x3e50afac	0.20379514
251	0x3f25edcb	0.6481597
252	0xbf0690e2	-0.52564824
253	0x3e87b5be	0.26505846
254	0x3f11e3ad	0.5698803
255	0x3da53769	0.08067209

inter_layer.bias f4 [64]
0	0xbe065c37	-0.13121115
1	0xbc0151fe	-0.007893084
2	0xbd0e357b	-0.03471897
3	0x3dc2ff8a	0.095213965
4	0x3c997546	0.018732678
5	0x3e368165	0.17822798
6	0x3e4750d1	0.19464423
7	0x3e009519	0.12556876
8	0xbd1656e9	-0.036703978
9	0xbae5d708	-0.0017535398
10	0xbdd26849	-0.10273797
11	0x3e0e6cae	0.13908646
12	0x3e394ef8	0.1809653
13	0x3d37e4ec	0.04489605
14	0x3e694c87	0.22783099
15	0x3dd81593	0.1055099
16	0x3e4b3904	0.19845968
17	0x3da05aea	0.078298405
18	0x3d0e7b83	0.03478576
19	0xbd84d27a	-0.06485458
20	0x3d69dda7	0.05709615
21	0x3cf5216b	0.029923161
22	0x3dfca211	0.12335599
23	0x3c9a793f	0.018856643
24	0x3e44e327	0.19227277
25	0x3e889e21	0.26683143
26	0x3c68c0a5	0.014206086
27	0x3e065f60	0.1312232
28	0x3d5dd48c	0.05415778
29	0xbd1e0ca3	-0.03858627
30	0x3d740707	0.059577014
31	0x3e3e3d01	0.18577959
32	0xbd84b63b	-0.0648007
33	0x3dc5d43b	0.096596204
34	0x3e4f7dcd	0.20262833
35	0x3e5fa2e8	0.21839488
36	0xbd9aaf01	-0.075529106
37	0xbd967b1f	-0.07347702
38	0x3e190625	0.1494375
39	0xbc11bc9a	-0.008895064
40	0xbdba7657	-0.09104603
41	0x3c4de4ee	0.012566788
42	0xbe928b94	-0.28622115
43	0xbde70853	-0.112808846
44	0x3e0d2990	0.13785386
45	0x3e0eee0a	0.13957992
46	0x3db2cdbb	0.08730646
47	0xbdd79d31	-0.10528029
48	0x3e3aa984	0.18228728
49	0xbd1e0c97	-0.038586225
50	0xbc16fe77	-0.009215943
51	0x3e9453f0	0.2897029
52	0x3e41a79d	0.18911596
53	0xbb779cd7	-0.0037782693
54	0x3e1a8eeb	0.15093581
55	0x3e2c67c9	0.16836466
56	0x3cc6d2cf	0.024270443
57	0x3e153c8e	0.14573881
58	0xbd837692	-0.064191
59	0x3d5857b1	0.052818004
60	0x3da3ff55	0.08007685
61	0x3e0352b4	0.12824517
62	0xbd88c964	-0.06679037
63	0x3bba2b70	0.0056814477

hidden_to_output.weight f4 [5, 64]
0	0xbf36cd78	-0.7140727
1	0x3f830b6f	1.0237864
2	0xbfb7dbb6	-1.4363925
3	0x3e86f240	0.26356697
4	0x3d85db3c	0.06535956
5	0xbf5baa4d	-0.85806733
6	0x3eccb1c1	0.39979365
7	0xc0744ffc	-3.8173819
8	0xbf833208	-1.0249643
9	0x407c526a	3.9425302
10	0xbe8b9af9	-0.27266672
11	0x3e549d3e	0.20763108
12	0x3ee6db14	0.45089018
13	0x3eb9db9b	0.36300358
14	0xbf54aa69	-0.83072525
15	0x3e6a5438	0.2288369
16	0x3fe67b8d	1.8006455
17	0xbf0d2e3d	-0.5514868
18	0xbf77f4cd	-0.9685791
19	0xbc98e2b5	-0.01866279
20	0x3e2fe0f5	0.17175658
21	0x3e1a5a11	0.1507342
22	0x3ebc3dc4	0.36765873
23	0xbed712e3	-0.42006597
24	0x3fb2fcd1	1.3983403
25	0x3f18040b	0.5938117
26	0xbeb181d3	-0.3466936
27	0x3fb074a5	1.3785597
28	0xbecca1bf	-0.39967152
29	0x3f0e6343	0.5562021
30	0x3e2d5c60	0.1692977
31	0x3fb5e742	1.4211199
32	0xc00c39b1	-2.1910212
33	0xbe19a6b9	-0.15005006
34	0x3f18ddc6	0.597134
35	0x3edd966c	0.43278825
36	0x401e4b81	2.4733584
37	0xbea49d86	-0.3215143
38	0x3e8b692d	0.2722868
39	0x40772560	3.8616562
40	0xbe950867	-0.29107973
41	0x3fff1df3	1.9931015
42	0xbfaddfd0	-1.3583927
43	0x3ef6adcc	0.48179471
44	0xbeaa7305	-0.33290878
45	0xbe8acaf1	-0.27107957
46	0xc05787db	-3.367667
47	0xbf3e6a63	-0.74381083
48	0x3fbacc60	1.459362
49	0x40724b26	3.7858367
50	0xbe7b0741	-0.24514486
51	0x3e48a2a4	0.19593292
52	0x3e8cb4bd	0.27481642
53	0xbec77cb7	-0.38962337
54	0x3fb0f6ce	1.3825319
55	0x4036c288	2.8556232
56	0xc07bf63c	-3.936904
57	0x3f03bb9d	0.5145815
58	0xbff13f1c	-1.8847384
59	0x3e84c03d	0.25927916
60	0x3dba5360	0.09097934
61	0x3e7453e0	0.23860121
62	0x3d527a78	0.051386327
63	0x400ee983	2.2330024
64	0xbfde67e9	-1.7375461
65	0xbf902366	-1.1260803
66	0x3cdc56c2	0.026896838
67	0x3eb4da71	0.35322908
68	0x3f374584	0.7159045
69	0xc006a2d3	-2.103688
70	0x3f20fd39	0.6288639
71	0x3f379161	0.71706206
72	0x3e431841	0.19052221
73	0xbff63f61	-1.9238092
74	0x3edb8622	0.42875773
75	0x3eafd31c	0.3434075
76	0xc0459538	-3.0872326
77	0x3eaf651c	0.34256828
78	0xc08450c3	-4.1348586
79	0x3e1131b0	0.1417911
80	0xbf8e5b7f	-1.1121672
81	0x3f785f23	0.9702017
82	0xc099625f	-4.793258
83	0xbff9bba3	-1.9510387
84	0x3efff854	0.49994147
85	0x3edb9ca9	0.4289296
86	0x3eba021d	0.36329737
87	0x3f0ad315	0.54228336
88	0xc00de534	-2.2171144
89	0x3e239201	0.15973665
90	0xbf34a73d	-0.70567685
91	0xbf1255a4	-0.5716193
92	0x3f6f3d87	0.9345326
93	0x3f5cf6a3	0.8631384
94	0x3f0329b8	0.5123553
95	0xc0038c32	-2.0554318
96	0x3f2d8801	0.6778565
97	0x3f418135	0.7558778
98	0xbd850362	-0.06494786
99	0x3efbedf8	0.49204993
100	0xc00acaaa	-2.1686196
101	0xc0520e02	-3.282105
102	0x3f19686d	0.59924966
103	0xc06ecea5	-3.7313626
104	0x3f8b67c1	1.0891038
105	0xbfb44276	-1.4082782
106	0x3fde0d89	1.7347881
107	0x3dc7cb65	0.09755591
108	0x3f33b877	0.70203346
109	0x3f253d29	0.6454645
110	0x3e81a08f	0.2531781
111	0x3f061d98	0.52388906
112	0xbfe86003	-1.81543
113	0xc0657404	-3.585206
114	0xc04b390b	-3.1753566
115	0x3eefea25	0.46858326
116	0xbf82d6fd	-1.0221859
117	0xbffa3b5a	-1.9549363
118	0xbff3c0ba	-1.904319
119	0xc01fb579	-2.4954512
120	0x3eb03922	0.3441859
121	0xbd9e4086	-0.077271506
122	0x3fe6e2a5	1.8037916
123	0x3eb5dbdd	0.35519305
124	0x3ed9984c	0.42499006
125	0x3efd03f3	0.49417076
126	0xbe85c50c	-0.26126897
127	0xc014f2dc	-2.327323
128	0xc0378dfb	-2.8680408
129	0x400c2047	2.18947
130	0xbea13f97	-0.31493828
131	0x3e9c1f8f	0.30492827
132	0xbe8e98b0	-0.27850866
133	0xbe50e6cc	-0.20400542
134	0x3fc0182a	1.5007374
135	0x3e5d3bac	0.21604794
136	0xbe7b266d	-0.24526377
137	0xbffa266c	-1.9542975
138	0x3f957888	1.1677408
139	0x3d5c1acb	0.05373649
140	0x3e91a798	0.28448176
141	0xbfb564d8	-1.41714
142	0x3cebb83a	0.02877437
143	0x3f1c6ad1	0.6110049
144	0xc0982e85	-4.7556787
145	0x3c73b28d	0.014874113
146	0xbe239782	-0.15975764
147	0x40120a70	2.281887
148	0x3f3a2fd4	0.7272923
149	0x3e7f485c	0.24929947
150	0x3e862fcd	0.26208344
151	0x3ece0488	0.40237832
152	0x3ee96f79	0.4559286
153	0xbfddd975	-1.7331988
154	0x3f608546	0.8770336
155	0xc02ae831	-2.6704218
156	0x3d931404	0.07181552
157	0xbf80307c	-1.0014796
158	0x3d3c3bd8	0.04595551
159	0x3f45c7e5	0.7725814
160	0xbad9c544	-0.0016614576
161	0x3e51e093	0.20495825
162	0xc042f01c	-3.045905
163	0x3ed63b2a	0.41842014
164	0x4020da0d	2.5133088
165	0xc02694a3	-2.602822
166	0x3f71cccc	0.9445312
167	0x401fde1c	2.4979315
168	0xbed6dbcd	-0.4196457
169	0xbde70344	-0.1127992
170	0xbefceade	-0.4939794
171	0x3debcdf7	0.11513894
172	0xbfa9747b	-1.3238672
173	0x3f357296	0.7087797
174	0x3eadb7f8	0.3392942
175	0xbdba8feb	-0.091094814
176	0x3e53c969	0.206823
177	0xbfbf0ef7	-1.4926442
178	0x3ccfa68b	0.025347969
179	0x3f18a4e9	0.5962663
180	0x3f8eea7c	1.1165309
181	0xbf9c97f3	-1.2233871
182	0x401b758d	2.4290497
183	0x3ef09c01	0.46994022
184	0x3cee74ae	0.029108372
185	0x3f9e5360	1.2369194
186	0xbf33c633	-0.70224303
187	0xbeb9420d	-0.36183205
188	0xbe7568ea	-0.23965803
189	0x3f6b23c7	0.91851467
190	0xbe0219e0	-0.12705183
191	0x3fe90b76	1.8206623
192	0x3f620204	0.88284326
193	0xc034dc3a	-2.8259416
194	0x3f06acb0	0.5260725
195	0xbc2b51df	-0.010456531
196	0x3e49653a	0.19667521
197	0x3ea50708	0.32231927
198	0xc0266d50	-2.600422
199	0x3da282e5	0.079351224
200	0x3ec6c988	0.3882563
201	0x4041a901	3.0259402
202	0xc08a36eb	-4.319204
203	0x3d839ae9	0.06426031
204	0x3ec3da56	0.38252515
205	0x4035261b	2.8304508
206	0x3e5e33b4	0.2169941
207	0x3ececdfd	0.40391532
208	0x3f8d1c48	1.1024256
209	0x3e9b633a	0.3034914
210	0x3ec52666	0.38505858
211	0xc02da3b7	-2.7131174
212	0xbf34893e	-0.70521915
213	0x3d66cbeb	0.056346815
214	0x3dfa0095	0.12207142
215	0xbe80c306	-0.2514879
216	0x3ee28d73	0.44248542
217	0x3ffa4b55	1.955424
218	0xbf79f68d	-0.9764183
219	0x3f282aa8	0.6569009
220	0xbfb17dae	-1.3866479
221	0x3f275fa8	0.65380335
222	0x3e75b1b8	0.23993576
223	0xbe7f1c59	-0.24913158
224	0x3c71ecf8	0.01476597
225	0xbfc37218	-1.5269194
226	0x4051f2d7	3.2804468
227	0x3d11dd75	0.03561159
228	0xc044d3a4	-3.0754175
229	0x3f4b86bd	0.7950247
230	0xc03d4a00	-2.9576416
231	0xc0676888	-3.615755
232	0x3f3687aa	0.71300757
233	0xbf9c3d80	-1.2206268
234	0xbf54ae9d	-0.8307894
235	0x3e932eed	0.2874674
236	0x3ffd6676	1.9796894
237	0xbde14074	-0.109986216
238	0x3df4a3cc	0.11945304
239	0x3e9651c4	0.29359257
240	0x407835b1	3.878277
241	0x403a8c0b	2.9147975
242	0xbe3c593f	-0.1839342
243	0xbff68577	-1.925948
244	0xbedb0dd6	-0.42783993
245	0x3f247b66	0.6425079
246	0x3eac7a4f	0.33687064
247	0x3e86b4e5	0.26309887
248	0x3cf354a6	0.02970345
249	0xc0174566	-2.3636107
250	0xbd732827	-0.059364464
251	0x3f8574fa	1.0426323
252	0x3f1cb7b6	0.6121782
253	0xc0a0600e	-5.0117254
254	0xbe324ea3	-0.1741281
255	0xbfe6c695	-1.8029352

hidden_to_output.bias f4 [5]
0	0xbdd4351b	-0.103616916
1	0xbd9444c4	-0.072396785
2	0x3d029898	0.031883806
3	0xbd2e306e	-0.042526655
4	0x3d87db0f	0.06633579
