nn_base/net.model (torch, 46432 bytes, 6 tensors)

input_to_hidden.weight f4 [128, 18]
000000 5f 94 1c 3e b7 7d 6a bf 4e 44 75 bf 1b fb 1c 3e
       0.15290974 -0.91598076 -0.9580735 0.15330164
000010 21 62 f4 be 5e a4 ff 3e 08 e8 1d bf ac f5 dd 3e
       -0.47731116 0.4993009 -0.61682177 0.43351495
000020 1a 9b 6c 3f 8d 49 4c 3d ee c8 fd 3e 36 38 40 3f
       0.92424166 0.04987483 0.4956736 0.7508577
000030 06 c5 cb 3f 57 3f 89 bf 9b ec 18 3f 8a 54 3d bf
       1.5919502 -1.0722455 0.5973603 -0.7395712
000040 d1 f6 b1 be 53 50 e5 bd e1 f0 10 3f 5d 26 9d 3e
       -0.34758618 -0.11196961 0.5661755 0.3069333
000050 09 64 37 3f 9b b5 04 bf 5c 46 29 bf 54 52 99 3f
       0.71637017 -0.5183961 -0.66122985 1.197825
000060 67 80 25 bf 10 fc 18 3f 2a 35 03 bf 12 94 13 3f
       -0.6464905 0.59759617 -0.51252997 0.5764781
000070 30 58 85 bf 44 6c 42 3f 5b ad 39 bf 6e 3e af 3a
       -1.0417538 0.7594645 -0.72530144 0.0013370046
000080 35 a7 f7 3c 37 c0 92 3d bc c0 27 3e c7 5a 96 bf
       0.030231098 0.07165568 0.16382116 -1.1746453
000090 e4 f5 d1 be d4 8c 2f 3e 14 ef 04 be d2 72 f1 3e
       -0.41007912 0.17143565 -0.12981826 0.47157913
0000a0 ed 9e 3f 3f f8 ff b7 3e 4a 57 6e 3f ed 74 89 3e
       0.74851876 0.35937476 0.9310194 0.2684702
0000b0 10 58 b8 3e 8b 37 39 bf d3 59 94 be cd e6 02 3f
       0.36004686 -0.72350377 -0.2897478 0.51133424
0000c0 73 3d 70 bf ff 87 d7 3d 0c d7 2d bd 1c 9e 9d 3f
       -0.93843764 0.10523986 -0.042441413 1.2313876
0000d0 92 e2 20 3e 45 1b d2 3f 9e 36 4f 3f 55 71 00 bf
       0.1571143 1.6414572 0.80942714 -0.5017293
0000e0 74 c8 93 bf 90 c1 e9 be b0 da ca 3c 5d fb a5 3f
       -1.1545548 -0.4565549 0.024762481 1.2967335
0000f0 a5 65 2f 3e fe d2 c3 bd 3e 45 bf be a1 50 20 be
       0.17128618 -0.09561728 -0.37357515 -0.15655757
000100 ee b2 26 bf 32 7b a1 3f 46 a9 52 bf 3e c9 85 3f
       -0.65116775 1.2615721 -0.8228954 1.0452039
000110 75 06 c7 3f 5d de 19 be 73 38 4f 3e 79 19 69 bf
       1.5548846 -0.15026231 0.20236377 -0.91054493
000120 10 2c 95 3d 08 74 0f 3f a1 bd 4b bf 71 3b db be
       0.07283795 0.56036425 -0.79586226 -0.42818788
000130 90 ad aa 3f 46 a1 3d bf 08 89 de 3d c2 04 2d bf
       1.3334217 -0.7407421 0.108659804 -0.67585385
000140 a5 8a 4e be 3b 6e 69 3f 82 d4 fe 3d 6c 59 b4 bd
       -0.20170076 0.91183823 0.124428764 -0.08806118
000150 8d be 52 3d 11 40 35 bf 14 01 0f bf ac f1 74 3d
       0.051451255 -0.7080088 -0.5586102 0.05980079
000160 91 36 35 be d0 fd cd 3f ee 94 3c bf 31 22 3c bf
       -0.17696597 1.6093082 -0.7366475 -0.7348967
000170 e8 8d 49 be d4 6e 16 3f b6 7d 48 3f 72 11 95 3e
       -0.19683039 0.5876286 0.7831682 0.29114872
000180 98 41 61 3e a2 ea b7 be b9 b1 54 3d 04 85 d2 3d
       0.21997678 -0.35921198 0.051927302 0.10279277
000190 77 fc 41 bd 63 09 56 bf 66 3c 73 3e 6f 00 db be
       -0.04735991 -0.83608073 0.23753509 -0.42773768
0001a0 8c 44 76 bf be d4 9e be ee e2 7f bf 7d c6 06 3d
       -0.96198344 -0.31021684 -0.9995564 0.032904137
0001b0 5d 20 59 bf 62 92 64 bf 07 fe 7d 3e dc 83 1b bf
       -0.8481501 -0.8928586 0.24803935 -0.60748076
0001c0 53 ab 66 be 65 00 43 bd 94 7b 2e bf 36 a9 59 3f
       -0.22526293 -0.047607798 -0.68157315 0.8502382
0001d0 82 1f 17 3f c5 66 21 3d f8 bb 84 bd 24 ae 04 3c
       0.5903245 0.03940465 -0.06481165 0.008098159
0001e0 c0 7e 8b be f3 da 37 be 88 2f 4e 3f 3b 8e a7 3e
       -0.2724514 -0.17954616 0.80541277 0.327257
0001f0 57 3c 29 3f ed c4 fd 3d b0 0e 00 bf 22 6c ae 3e
       0.66107696 0.12391076 -0.5002241 0.34066874
000200 04 9e 72 3f 94 f1 11 bf 5d f4 82 3f 3d 74 ad be
       0.9477236 -0.57009244 1.0230824 -0.33877745
000210 b0 d4 1f 3f b5 63 05 3f cc 1d 25 bf 56 a6 29 bf
       0.6243391 0.52105266 -0.6449859 -0.66269433
000220 a8 d3 b4 be 2c b3 d6 3e be d8 80 3e 22 cf 38 be
       -0.3531773 0.41933572 0.2516536 -0.18047765
000230 2f 0b 5b 3f bd 25 75 bf df ee a7 3f 96 50 f8 be
       0.8556394 -0.9576071 1.3119773 -0.48498982
000240 14 59 31 3f 16 b0 3e bf b1 5d 3d bf 19 30 52 bf
       0.6927655 -0.74487436 -0.73971087 -0.8210464
000250 3f 6f 7a 3f 72 7f ae 3f e4 ec 63 3f 0c 09 70 3e
       0.97826 1.3632643 0.8903334 0.23440951
000260 cd ad b8 3f ff 29 ae bf 93 ca 8c 3f 26 2f c0 be
       1.442804 -1.3606566 1.0999321 -0.3753597
000270 78 80 56 3f 71 e4 a9 3e 00 4a 4b bf c4 91 a8 3e
       0.8378978 0.331821 -0.7940979 0.3292371
000280 01 a2 09 3e 7b dd 1d 3f ff 6c 0e 3f de 11 0b 3f
       0.13440706 0.6166608 0.55635065 0.5432414
000290 0e a6 8d 3d 1a d4 37 bf b2 62 10 be 5e 55 97 3e
       0.06916438 -0.71808016 -0.1410015 0.29557317
0002a0 54 ca 97 3e db ec f5 3d 7b 92 25 bf 4d 26 c3 3d
       0.29646552 0.12008067 -0.64676636 0.0952879
0002b0 d7 70 b9 3d 66 92 eb be 07 24 6c be ed 38 88 bf
       0.090547256 -0.4601013 -0.23060618 -1.0642372
0002c0 b0 0d ca bf 56 d7 50 3c 7a 97 52 3f 4e 00 4f bf
       -1.5785427 0.012746653 0.82262385 -0.8085984
0002d0 a6 7b 28 3f 1d 39 02 3f e4 67 07 bc 40 74 f0 be
       0.6581367 0.508684 -0.008264516 -0.46963692
0002e0 44 fe 92 3e 61 71 1e bf e7 c7 e5 bd 97 40 23 3f
       0.28709614 -0.6189175 -0.11219769 0.6377043
0002f0 7c 09 f4 3e e5 02 53 3f 6d 9c ac 3f 24 ff 81 bf
       0.47663486 0.8242629 1.3485237 -1.0155988
000300 7c 8e 62 3f ed 15 86 3e 1c 3c 6a 3e 43 c0 1f bf
       0.88498664 0.26188603 0.22874492 -0.62402743
000310 90 93 62 bf b2 e4 8c bf 0c b2 01 bf 24 71 fc 3e
       -0.8850641 -1.1007292 -0.506623 0.4930507
000320 08 a9 03 3f 89 e7 1a 3f 2d 7f 1a bf a2 57 f8 bd
       0.51429796 0.60509545 -0.60350305 -0.1212609
000330 53 0e d9 bc fb 06 82 3f 08 2c 1f 3f 32 78 28 bf
       -0.026496088 1.015838 0.6217656 -0.65808403
000340 7c c4 08 3e 36 83 2c bf 64 52 f2 3e c9 d0 c9 3e
       0.13356203 -0.6738771 0.47328484 0.39417103
000350 ca 0c 5b bf 41 c2 25 bf 5f ab 20 3f f6 7a 58 3f
       -0.8556639 -0.6474953 0.6276149 0.84562624
000360 e1 9e ac 3f 1e aa 63 3e af 8d 25 3f 90 d1 de 3e
       1.3485986 0.22232863 0.64669317 0.43519258
000370 db 7d 97 3e f4 66 02 be 6e d8 2d be 77 06 ea 3c
       0.29588208 -0.12734586 -0.16977093 0.028567536
000380 d8 16 c6 be cb 48 04 3f 6f 92 88 bf f3 26 33 bd
       -0.38689303 0.51673573 -1.0669688 -0.043738317
000390 57 12 af 3d 3b d9 07 bf c5 0f 02 3f d4 a4 35 be
       0.0854842 -0.5306584 0.5080531 -0.17738658
0003a0 fe 05 0f bf d2 cf 89 3e 64 4b f8 3e cd 21 2a bf
       -0.5586852 0.26916367 0.48495018 -0.66457826
0003b0 c7 1b 48 3d 61 f7 f3 3e bc fe 66 3f ab d0 a6 3f
       0.048854616 0.47649673 0.90232444 1.303243
0003c0 e9 e9 cf bf 75 e1 4f be 98 ce 5b 3e 7b 39 26 bf
       -1.6243259 -0.20300849 0.21465528 -0.6493146
0003d0 9d d3 d4 3e 5c 7e 1b be 15 37 85 3f 65 c9 b0 3b
       0.41567698 -0.15184921 1.0407435 0.005395102
0003e0 ce e5 da be a4 9f e0 bf e4 69 ff be 0c cc 6b 3f
       -0.42753452 -1.7548718 -0.49885476 0.92108226
0003f0 6d c6 92 be 12 42 3a bf 57 3f bb be 74 f1 44 3f
       -0.28667012 -0.72757065 -0.36571762 0.7693093

input_to_hidden.bias f4 [128]
000000 9a ac a8 3d e6 da d6 bd 97 5a 8f 3e 65 b0 98 be
       0.08236046 -0.1049097 0.27998802 -0.29822078
000010 a9 60 49 bd 72 57 db bd ff dd d5 bd f5 d9 46 be
       -0.049164448 -0.10710038 -0.10442733 -0.19419082
000020 13 dc 49 be 28 e3 d0 3e b6 07 17 bc 67 c9 d4 3e
       -0.19712858 0.40798306 -0.009218147 0.41559908
000030 01 a3 98 3e d0 18 31 be fa d2 f8 bd ea e0 8a 3e
       0.29811862 -0.17294621 -0.121496156 0.2712472
000040 a3 bf 94 bc 30 a2 f0 bb 65 5f 04 3f 2c 64 d4 bd
       -0.018157786 -0.007343553 0.5170806 -0.10370669
000050 c5 c4 ff 3d 73 2f e4 3d ca 0c bd 3e e8 2b 0a 3f
       0.12488703 0.11141863 0.3692382 0.53973246
000060 cf 8a e6 be 57 92 43 3e 87 6a c1 3e a3 84 b0 3d
       -0.45027778 0.19098793 0.37776586 0.086190484
000070 3b b6 b8 3e f0 26 5b be c4 a3 ed 3e f6 fb 21 3e
       0.3607653 -0.21401572 0.46414006 0.15818772
000080 c0 56 f3 3e 40 57 6b 3e f0 b9 60 3e 6b 77 c7 3d
       0.47527122 0.22982502 0.2194593 0.09739574
000090 16 97 80 3e 3d e5 d0 be b7 a4 97 3d dd 39 ae 3d
       0.2511527 -0.40799895 0.07404464 0.0850713
0000a0 59 47 4f 3e cf d9 e8 3e 6c 06 16 3f 02 46 17 3f
       0.2024206 0.45478675 0.5860355 0.590912
0000b0 dc b0 8e 3e 0d c3 a7 3e 38 ae 64 3e 03 9e ef 3e
       0.27869308 0.32766 0.22332084 0.4680024
0000c0 3f ef e3 bb 84 77 ea 3e ff ff 7d 3e 13 bb fb 3e
       -0.0069560106 0.45794308 0.24804686 0.49166164
0000d0 56 54 95 3e 54 56 9c 3e 36 a1 90 be 99 84 bf 3d
       0.29165906 0.30534613 -0.28247994 0.09351463
0000e0 2c a6 a8 be 6b 5e 09 3f 92 0a 0a bf 9b 8b 37 be
       -0.3293928 0.53659695 -0.5392238 -0.17924349
0000f0 ef 7f 8c bd a5 46 e2 3e 0d 9e 31 bc e1 75 d9 bd
       -0.06860339 0.44194523 -0.010840905 -0.10618187
000100 95 5f af 3e 0b ac f0 bd 1c 6c 7a be b2 28 b1 3e
       0.3425261 -0.117515646 -0.24455303 0.3460136
000110 0e c3 d4 be 26 f2 80 3d 48 99 8d bd ce 91 ab be
       -0.41555065 0.06296186 -0.06914002 -0.33509678
000120 84 da 45 3e dc ee c5 3e 92 ff 9f bd ba 57 8c 3e
       0.19321638 0.38658798 -0.07812418 0.2741068
000130 76 a5 53 3e 26 86 af 3d 7a e4 ee 3d 11 83 a6 3d
       0.20668587 0.08570509 0.11664672 0.08130468
000140 c0 3c 4c 3e 27 b6 01 be 9c 7a 03 3d fd 42 95 bd
       0.1994505 -0.12667142 0.03209935 -0.072881676
000150 76 8a 98 3e 3c 05 cd bc f6 e9 83 3d 83 6e 5a bd
       0.29793137 -0.02502691 0.06441109 -0.05332805
000160 e4 91 cc 3e 7b 33 44 3e a1 89 a0 3e 75 99 9b 3d
       0.39955056 0.19160263 0.31355003 0.07597629
000170 a6 9b bb 3e a5 4b bf be 01 19 34 3e 36 b2 c6 3d
       0.36642188 -0.373624 0.17587663 0.0970196
000180 d6 7b 10 3e 34 67 14 3f 73 af 84 3e 4f 14 6d 3d
       0.1410974 0.57969975 0.25915107 0.057880696
000190 f7 d6 39 3e af 4f 85 3e 57 bf 16 be 5e 8e 93 3e
       0.18148409 0.26037356 -0.14721428 0.28819555
0001a0 ca d2 64 3e ca 7c cd 3d 38 71 d3 3d 16 7a 8a be
       0.22346035 0.10033567 0.10324329 -0.2704627
0001b0 d0 9d d4 3e 78 95 46 3e f7 d0 37 3e 67 f7 c0 be
       0.4152665 0.19392955 0.17950808 -0.37688753
0001c0 ad fe cd 3e f0 16 e8 3d 70 b8 8d 3e 0a a1 70 3e
       0.40233365 0.113325 0.27679777 0.23498932
0001d0 64 b2 ef bd 5c 89 ef bd 70 1b dd bd 37 11 0a 3f
       -0.11703947 -0.11696121 -0.10796249 0.5393252
0001e0 4a 31 a6 3d 24 2a 04 3f d9 05 5c be c2 09 41 3e
       0.0811487 0.516268 -0.21486606 0.18851379
0001f0 02 73 90 3e c7 2d 22 be 85 6b d3 3e af c8 d4 bd
       0.28212744 -0.15837775 0.41292968 -0.1038984

inter_layer.weight f4 [64, 128]
000000 68 3a e7 3e 62 d6 0e 3f a1 f1 5c be 67 04 81 3e
       0.45161748 0.5579587 -0.21576549 0.2519867
000010 1c b8 62 3e 00 ec 45 be 5c 42 7b 3e 7f 71 52 be
       0.22140545 -0.19328308 0.24537033 -0.20551108
000020 ee c6 e9 bb 6b f9 c5 be 2a 88 eb be 32 9f 62 be
       -0.00713431 -0.38666853 -0.46002322 -0.2213104
000030 e5 96 65 be a6 fe 36 3f b3 31 1e 3f ee 91 88 3e
       -0.22420843 0.7148231 0.61794585 0.26673836
000040 f1 c0 51 3f 16 d9 d9 3e 9f 58 8d be e3 79 28 3f
       0.8193503 0.42548436 -0.27606675 0.65810984
000050 c6 1d 72 be cd 09 df 3d b5 1b 46 bd 13 32 8e be
       -0.2364417 0.10890541 -0.048366267 -0.2777258
000060 2c 1f 0d 3f 97 2f ae 3e 99 74 56 bd 94 0f e6 bf
       0.5512569 0.34020683 -0.05235729 -1.7973504
000070 e1 21 7c bf f6 1d 37 3f 5c c2 4f bf 6d 1b 4e 3e
       -0.98489195 0.7153009 -0.81155944 0.2012765
000080 5a a7 2f bf 9e 98 2d 3e ca 3f 15 3e ff c6 45 bf
       -0.68614733 0.1695275 0.14575115 -0.7725677
000090 5a 30 92 3e 59 2a 81 3f 77 2c 0c bd 7c 3b 86 bc
       0.28552514 1.0091048 -0.034222092 -0.016385786
0000a0 74 c5 e2 3e b0 33 22 bf c4 64 6d bd 53 55 8f 3d
       0.4429127 -0.6336012 -0.057957426 0.06998696
0000b0 9f b7 07 bf e4 dd 13 3f 4a 43 d5 be 96 0c cf be
       -0.5301456 0.57760453 -0.416529 -0.4043929
0000c0 d0 94 0e bf b7 ed 14 be 26 d6 b5 bb 2f 24 fe 3c
       -0.5569582 -0.14543806 -0.00554921 0.031023113
0000d0 e1 db ce 3e bd 0e 9f be 45 88 57 bf cf 44 7a be
       0.4040213 -0.31065932 -0.84192306 -0.24440311
0000e0 8f 8d 2c be 56 85 22 bf 34 c4 15 bf 28 99 33 3f
       -0.16850875 -0.63484704 -0.5850251 0.7015557
0000f0 52 84 9b 3e 59 77 c6 be 09 27 89 3f 2d d6 ac 3e
       0.3037439 -0.3876293 1.0715038 0.33757153
000100 f8 48 0c bd 75 a1 20 3f c7 ba 1d 3d f5 0b 0f bf
       -0.034249276 0.62746364 0.038508203 -0.5587762
000110 1f e5 24 3f 5e 4c f9 3d 4e 37 0c 3f 62 b3 2c 3f
       0.6441211 0.12172769 0.5477189 0.67461216
000120 06 98 4d bf d1 18 b2 be d1 17 ed 3e ec 8f 33 bd
       -0.80310094 -0.34784558 0.46307233 -0.043838426
000130 1e a8 03 bf bf 59 36 3e 14 4c 7d 3f 85 8f 7a bf
       -0.514284 0.17807673 0.9894421 -0.97875243
000140 8f d7 b2 be 1a 8d 2b be 2f 68 65 3d 28 40 01 be
       -0.34930083 -0.16753045 0.05600756 -0.1262213
000150 8e 76 b2 3e 2b f5 a9 be 1f d5 85 bf 1a eb dc 3e
       0.34856075 -0.3319486 -1.0455664 0.43148118
000160 f8 07 04 bf 66 e7 19 3e 55 c3 f3 bd b6 cc 09 3e
       -0.5157466 0.15029678 -0.11902491 0.13456997
000170 72 24 af 3e d9 f8 20 3f df f2 09 bf cf 00 e6 be
       0.34207493 0.6287971 -0.53886217 -0.44922492
000180 19 20 94 3d e4 eb 7a bc 3d e8 c4 be 24 b8 40 3e
       0.07232685 -0.01531503 -0.38458434 0.18820244
000190 c8 94 a2 3c ac 7f a6 be 0d 7c 5c 3f 20 60 3a be
       0.019846335 -0.3251928 0.86126786 -0.18200731
0001a0 87 54 ea 3e 8e 1c 53 3e 6e fa 93 3e 83 ed ed 3e
       0.45767614 0.20616361 0.28902 0.4647027
0001b0 f8 b8 8d bf be 41 2c bf 3f c3 99 bd b2 ba 23 bf
       -1.1072073 -0.67287815 -0.07507943 -0.6395675
0001c0 59 7e 56 3d d4 79 29 bf 16 3d ce 3e 48 2a 02 be
       0.05236659 -0.6620152 0.4028098 -0.12711442
0001d0 e2 76 88 be 55 2d 71 bf 38 fd 9b be 05 d2 d6 bd
       -0.266532 -0.94209796 -0.30466628 -0.10489277
0001e0 16 d1 bf 3e 30 1f 4e be da 39 f3 be 45 00 07 3e
       0.37464207 -0.20129085 -0.47505075 0.13183697
0001f0 09 34 fa 3d 97 d9 36 bf 78 bf 12 3f 92 46 01 3f
       0.12216956 -0.71425766 0.5732341 0.50498307
000200 05 dc 23 3f 1d ae 74 bf 3c 8f 14 3d 1a 12 0a 3f
       0.640076 -0.95578176 0.03626941 0.5393387
000210 b3 1b b4 3e cc 66 09 3f 96 05 09 3f cb 09 06 be
       0.35177383 0.5367248 0.5352415 -0.13089673
000220 59 07 b8 bd c0 a7 84 bf 82 3a 95 bf 93 ad 00 bf
       -0.089857765 -1.0363693 -1.165848 -0.50264853
000230 e9 67 98 bf 54 b3 4a 3e 35 1f 5e 3f 95 32 c8 3e
       -1.1906711 0.19794971 0.8676637 0.3910109
000240 f3 37 f9 3e eb e5 61 3f 3e c2 c6 3e 19 52 42 3e
       0.48675498 0.8824145 0.3882007 0.1897663
000250 e7 58 4e 3e 9b ea a5 3e 61 66 52 3e 4c 5d b6 be
       0.20151101 0.32405552 0.20546867 -0.35618055
000260 c8 d7 23 bf 37 34 33 bf 9d 6f d9 3d 08 92 93 be
       -0.6400113 -0.7000155 0.10616992 -0.2882235
000270 e8 d5 c0 be 98 26 27 3f da d9 91 be be 96 ac 3b
       -0.37663198 0.65293264 -0.2848652 0.0052669933
000280 c0 9b 44 be f3 2e c2 bd 3a 7f 6e be d6 47 9a be
       -0.19200039 -0.09481611 -0.2329072 -0.3013293
000290 dc 38 50 3e d4 38 28 3f f5 33 32 3e 29 2a 09 3f
       0.2033419 0.6571171 0.17402633 0.53579956
0002a0 33 c6 d6 3e 6e 5c 29 bf 77 18 15 bf 56 dc 83 3e
       0.4194809 -0.6615666 -0.58240455 0.2575404
0002b0 9e 00 75 bd 4f e1 ca 3d 5e dd ea be 00 8d bc be
       -0.05981504 0.099062555 -0.45872015 -0.36826324
0002c0 af 93 21 3e db 49 18 bf ad 74 9c 3e 2f b1 08 3d
       0.15778993 -0.59487695 0.30557767 0.0333721
0002d0 a5 17 01 3f 53 de a0 be 2e 45 62 3e d2 d9 a6 be
       0.50426704 -0.3141962 0.22096702 -0.3258806
0002e0 c0 d9 33 bf 3f 1e e6 be 13 1b 08 bf 4f 63 50 3f
       -0.70254135 -0.4494495 -0.5316631 0.8140153
0002f0 31 d6 17 3e 57 94 35 be 52 39 02 3f 36 f5 52 3c
       0.14827801 -0.17732368 0.50868714 0.012875846
000300 8c eb 1b bf 4e a1 38 3f 59 e8 9a 3f 50 de ef be
       -0.6090629 0.7212113 1.2102157 -0.46849298
000310 81 f4 30 3f d7 39 a4 3e 6d b2 39 3f 2c d7 23 3e
       0.69123083 0.32075378 0.7253788 0.1600005
000320 87 a7 ba be 66 d1 a0 3e 73 0e 98 3e b0 48 2e bf
       -0.36455938 0.31409758 0.29698524 -0.6807966
000330 09 1a e6 3e 15 7b 0a 3d 1d 89 b6 3e d7 37 e6 be
       0.44941738 0.033808786 0.35651484 -0.44964477
000340 c7 30 94 3e c1 3a 0f be 50 89 c2 3e 21 10 57 3d
       0.28943464 -0.13987257 0.37995386 0.052505616
000350 5c dd 84 bc d5 93 14 bf 59 63 c7 be dd db 9e 3e
       -0.016218834 -0.58038074 -0.38942984 0.31027117
000360 63 3c 8a be c8 62 e6 3e 98 d4 15 be f1 a6 f4 3b
       -0.26999196 0.4499724 -0.1463188 0.00746619
000370 76 94 ef 3d 7e 25 9c 3e 92 02 52 be 72 ad 15 3e
       0.116982386 0.30497354 -0.20508793 0.14616945
000380 79 3d 1e 3f 04 45 a7 be a0 cf 38 be ea c3 9c be
       0.6181255 -0.32669842 -0.18047953 -0.3061822
000390 d2 2c 43 3e 9d f5 86 be 69 98 ea 3e 68 51 44 be
       0.19060066 -0.26359263 0.45819405 -0.19171679
0003a0 fa 14 ab 3e a4 3b 55 3e 72 02 82 be 41 9f 7f bd
       0.3341444 0.20823532 -0.2539249 -0.062407736
0003b0 03 ab c8 be f6 e9 e3 be 17 19 5b be 0f 50 13 bf
       -0.39192972 -0.44514436 -0.2139629 -0.57544035
0003c0 37 03 22 bc 6c 5a 61 bd 1f 5e c6 3e 44 51 a5 bc
       -0.009888462 -0.055017874 0.38743684 -0.020180352
0003d0 8a db f4 be af 52 77 bf 9b ff 7b 3e bb ad 8a be
       -0.47823745 -0.9661054 0.24609224 -0.2708567
0003e0 3d b8 05 3e 29 cf 13 be 09 b3 e8 bd ff ca 68 bd
       0.13058563 -0.14434494 -0.11362273 -0.056834217
0003f0 05 0e bd 3d a4 53 19 bf 91 05 79 3d c2 ff 13 bd
       0.0923119 -0.5989325 0.060796324 -0.03613258

inter_layer.bias f4 [64]
000000 57 c9 d6 bd 4a 99 8f bd ea a8 0b bd d4 5b 2d bd
       -0.10487621 -0.070116594 -0.034096636 -0.042323902
000010 83 d2 ae bd f0 a6 1b 3d 69 5d 1d 3e 2e 25 85 3e
       -0.08536246 0.038001 0.15367664 0.26004928
000020 6f b2 80 bc 08 38 bc 3d e8 8d a6 3d 84 2a b7 3e
       -0.015710084 0.091903746 0.08132535 0.35774624
000030 76 ab e7 bc 5a 8f 93 3e 37 0c c8 bd b0 28 fa 3d
       -0.028280001 0.28820306 -0.09767955 0.12214792
000040 29 fb 09 3e 4a 22 01 bd 44 a8 d4 3c 0f 8d fd 3c
       0.13474716 -0.03152684 0.025959142 0.030951051
000050 5c a5 42 3c 13 25 dc bd 1a 5e 29 3e 45 23 82 3e
       0.011880245 -0.10749259 0.16539803 0.25417534
000060 db 17 89 3d 33 81 15 3e 52 94 84 3e de 73 8b 3d
       0.06694003 0.14600067 0.2589441 0.06809209
000070 85 79 4a 3e 6d e7 5e 3e 26 b9 a3 3b 5b 31 b5 bd
       0.19772919 0.2176797 0.0049964366 -0.088473044
000080 4e 22 35 3e 85 f1 5c 3e 23 69 ac bd b0 2e a8 3d
       0.17688867 0.21576507 -0.08418491 0.0821203
000090 78 c2 eb bd bb f5 73 3d cf 42 cc 3e 1c 85 8c 3c
       -0.11511701 0.05956052 0.3989472 0.017153315
0000a0 a9 0e 81 be 9b a3 ae 3d 8b 94 73 3e 64 43 27 3e
       -0.25206497 0.08527299 0.23787133 0.16334301
0000b0 67 4b 32 bd f0 5f be 3c 30 44 79 3e 33 b5 0b 3d
       -0.04352894 0.023239106 0.24342418 0.034108352
0000c0 44 68 70 bb 27 79 18 3e 04 78 8a 3e 6b 92 b5 3d
       -0.003668324 0.14889966 0.2704469 0.08865818
0000d0 eb ee a6 3e 49 9b 52 be 4a 2e d6 bc 8b 62 89 3e
       0.32604155 -0.20567049 -0.02614512 0.26832995
0000e0 1f 00 90 3d 28 72 da bd 5d 3d 63 3e 34 c4 05 3d
       0.07031273 -0.10666305 0.22191377 0.032657817
0000f0 ec 6c 19 3c 5f b9 0e 3e fa b1 00 3e 8b dc f0 bd
       0.009364348 0.13937901 0.12567893 -0.11760815

hidden_to_output.weight f4 [5, 64]
000000 36 93 1b 3d f0 ac d3 3d 6d 43 e8 be e8 b6 13 c0
       0.03798219 0.103357196 -0.45363942 -2.3080387
000010 85 bf 43 bf 73 2f 39 c0 ba fe 1a 40 88 9d 4d 3f
       -0.7646411 -2.893521 2.4217973 0.803185
000020 71 17 8b be 44 bf 2a 3f 83 88 8a 3d 3a ff 0a 3f
       -0.27166322 0.666981 0.06764319 0.54295695
000030 1a 3c b7 bf a9 88 0d 3f 0d d2 c3 3f 67 11 f3 3e
       -1.4315217 0.5528665 1.5298477 0.47474214
000040 08 6c 8b bf 2c b3 77 c0 76 ff a2 3e b5 90 64 3e
       -1.0892344 -3.8703108 0.31835526 0.22320826
000050 97 b5 b9 be a8 1e 26 3c a4 9a b1 3f 63 1c fd 3f
       -0.36271355 0.010139145 1.3875318 1.9774288
000060 38 c0 ff 3e 3b 3d ca 3e 6c 42 cd 3e 5c 5c a1 3e
       0.4995134 0.3949984 0.40089738 0.31515777
000070 34 a4 b8 3f a4 e3 83 3e 4a 7c 24 3f 81 13 bd bf
       1.4425111 0.25759614 0.6425215 -1.4771577
000080 2a c0 42 40 0e e1 83 be 55 c2 2d c0 e4 95 1f 3e
       3.0429788 -0.2575764 -2.714986 0.15584522
000090 0c 05 27 be 2b 16 ee bf d2 f0 02 be c9 31 ad 3d
       -0.16310519 -1.8600515 -0.12787178 0.084567614
0000a0 e6 e9 41 40 d9 37 16 3f ac 3f 94 be b1 10 90 bf
       3.029901 0.58678967 -0.28954828 -1.1255094
0000b0 01 f8 3b c0 3a 11 66 3d a9 a1 1a 3f 42 bb f9 bf
       -2.937012 0.056168772 0.60402924 -1.9510272
0000c0 a2 cf 40 3c de 70 1e bf 26 6d c4 3e 39 65 07 bf
       0.0117682535 -0.6189097 0.38364524 -0.5288883
0000d0 d6 fe d8 3e 80 79 d0 bd 70 59 31 c0 3c ed dc 3e
       0.42381924 -0.10179424 -2.7710838 0.43149745
0000e0 26 9e 41 3e 8e 8b 59 40 91 84 9d 3e e3 6e 49 bd
       0.18907985 3.3991427 0.30765203 -0.049178015
0000f0 ab ea c2 bd 60 17 42 3d 19 63 b2 3f 2f 38 14 3e
       -0.095174156 0.047385573 1.3936492 0.14474557
000100 d0 6a 33 bf 69 2d 3a 3d 11 9e 7e c0 ff 5d 08 40
       -0.7008486 0.045453463 -3.9783976 2.130737
000110 2c 3f d3 3f e8 bd 61 3f d9 23 d8 bf 58 ad d2 be
       1.6503654 0.881804 -1.688594 -0.41147876
000120 fa 2e 9f 3d 05 66 10 3d 26 3b fa 3e 68 f6 82 bd
       0.07772632 0.035253543 0.48873252 -0.063946545
000130 cb d1 45 bf b6 e7 97 bf 1b 76 02 c0 e3 18 51 be
       -0.77273244 -1.1867588 -2.0384586 -0.2041965
000140 83 c5 0b bf 7c b5 ac 3f e3 a3 1b 3f 9c 5b 1e bc
       -0.54598254 1.3492885 0.60796946 -0.009665396
000150 33 e3 fc bf 1f 18 27 c0 c9 29 49 bf 33 98 d3 bf
       -1.9756836 -2.6108472 -0.78579384 -1.6530823
000160 04 05 56 be 4d e1 b2 3e 4e 85 e9 3e ad 31 c7 3e
       -0.20900351 0.34937516 0.45609516 0.38905087
000170 ee cb d1 bf c5 f1 e9 3e 20 19 08 bd c3 94 d8 3f
       -1.6390359 0.45692268 -0.033227086 1.6920398
000180 2b b5 45 c0 46 f6 5d c0 e7 65 41 3f 0d af 0f 3e
       -3.0891826 -3.4681563 0.75546116 0.1403162
000190 10 fb aa 3e 7f 15 57 3f b9 2f 8a c0 7d 0a 95 3f
       0.3339467 0.84017175 -4.3183255 1.1643826
0001a0 98 8d 8a 3f 2f 9c 26 be e5 20 3b c0 30 e8 4a 3f
       1.0824461 -0.16270517 -2.9238827 0.7926054
0001b0 cd 31 85 3f 10 bb 38 c0 91 ea 5a 3e 89 cc f3 bf
       1.0405823 -2.8864174 0.21378542 -1.9046794
0001c0 85 fb e7 3e 5e 85 49 3f 55 23 9d 3d c6 21 0f 3f
       0.45309082 0.7871913 0.07672755 0.5591091
0001d0 9f 64 d3 3e 18 06 b7 be 25 b3 67 3f 2c 36 20 bd
       0.41287705 -0.35746837 0.9050773 -0.039114162
0001e0 74 6d 0c 3f e7 dc 6a c0 84 dc b4 bf 4b b7 15 3f
       0.5485451 -3.6697328 -1.4129796 0.5848281
0001f0 30 32 43 c0 ae bc 02 3e 94 67 cb bf 80 3d 55 3f
       -3.0499382 0.12767288 -1.5890985 0.83296967
000200 d2 75 1b 40 2a a9 0a c0 2b e8 3c bf c6 76 01 be
       2.4290662 -2.166575 -0.7379176 -0.12642965
000210 6e 55 c9 bf 72 9d 79 be 80 ee ad bf 03 85 a6 3d
       -1.5729196 -0.24376467 -1.358841 0.08130839
000220 17 09 9c 3f e1 68 2c c0 55 d1 83 3f 7f 64 a5 3e
       1.2190274 -2.6939013 1.0298258 0.32303235
000230 84 02 cc bf 5a 8a 51 3f 25 4a 3f bf 4a 26 19 c0
       -1.5938268 0.8185173 -0.7472251 -2.392962
000240 87 11 2b 3f 44 12 d0 3d 52 8a ea 3e b9 bc 80 3e
       0.6682362 0.10159734 0.45808655 0.25143984
000250 7c 0a eb 3e a6 df 1b c0 33 5f e7 3f af ed ab 3f
       0.45906436 -2.4355254 1.8075927 1.343191
000260 63 31 87 3f d5 6c a6 3f 6d 93 41 3e 1c 48 dc 3e
       1.0561947 1.3001963 0.18903895 0.43023765
000270 58 5e 15 3f 18 ed f7 3d ce ba ee be 58 4c 80 bf
       0.5834708 0.12105769 -0.46626896 -1.0023298
000280 5a fe 57 40 0e e7 32 3e c8 56 51 3c 3e c7 b8 be
       3.3748994 0.17470953 0.012777038 -0.3608951
000290 13 86 06 c0 2e 48 da 3e c0 48 e6 3e 75 ca 26 3f
       -2.1019332 0.42633194 0.4497738 0.65152675
0002a0 2c f1 4f c0 a0 17 e9 be 99 ab ae 3e d6 56 a9 3e
       -3.249095 -0.45525837 0.34115294 0.33074063
0002b0 2f cd ae 3d 9d 82 e0 bf 31 da 66 3f fb af 9c bd
       0.085352294 -1.753986 0.90176684 -0.07650753
0002c0 45 11 1f 3f a4 95 fc 3c 04 bc 2c 3f ca 2f 10 3f
       0.62135726 0.030833073 0.6747439 0.5632292
0002d0 50 46 a2 3e 63 83 07 c0 03 7c 1e bd ab 9d 9f 3e
       0.3169427 -2.1173942 -0.038692486 0.3117498
0002e0 77 26 20 c0 c4 3d a6 3f 4e 97 a0 3e b7 5d 15 bd
       -2.5023477 1.2987599 0.31365436 -0.036466327
0002f0 04 fa 9d be 72 b4 f3 3e 35 12 32 bc 92 62 ab c0
       -0.3085481 0.47598606 -0.010868599 -5.3557825
000300 57 e7 5b c0 cd 44 c2 3e c4 05 41 3f 21 31 1d 40
       -3.4359949 0.37943116 0.7539942 2.4561236
000310 2b 22 fe be 23 0d 8e 3e 25 00 d0 3f 42 7d 1e bf
       -0.49635443 0.27744398 1.6250044 -0.6190988
000320 4f 58 e0 bf a0 49 45 40 d7 46 06 c0 81 37 08 be
       -1.752695 3.0826187 -2.0980737 -0.13302423
000330 c4 66 d4 3f 0e 61 9e 3e 0e a3 04 3f 65 b4 77 40
       1.6593862 0.30933422 0.518113 3.8703854
000340 80 ea 94 3e e3 e9 37 3e a8 ed 9b c0 c5 7e bf 3d
       0.2908516 0.17960314 -4.872761 0.09350351
000350 58 40 76 be e2 f2 87 3f 18 43 21 c0 54 32 d3 3d
       -0.24047983 1.0620997 -2.51972 0.10312334
000360 03 ac e3 be 17 72 3d c0 35 0b b8 3d 10 a2 c2 be
       -0.44467172 -2.9600885 0.089865126 -0.3801427
000370 aa d6 c7 3f b4 5a 61 bd 58 62 8c 3f f0 70 77 3f
       1.5612385 -0.055018142 1.0967512 0.96656704
000380 66 e2 82 c0 a9 07 e6 3e fd 3e 5f be fd 26 49 3f
       -4.0901365 0.4492772 -0.21801372 0.78575116
000390 1b 3f fb 3d 2d 8b a0 be a2 f6 98 3e 8b c0 49 c0
       0.12267896 -0.31356183 0.29875666 -3.152377
0003a0 d0 56 12 40 0f 9f 9f 3f f1 74 90 be e2 4e eb 3e
       2.2865486 1.2470416 -0.2821422 0.4595862
0003b0 64 3c 28 3e c2 81 ae 3f bd 46 86 c0 ec b4 c3 3e
       0.16429287 1.3633349 -4.196135 0.3822397
0003c0 9a 59 cb bf a3 e6 2f 3f e0 da 71 3e 0c 5b ca 3e
       -1.5886719 0.687113 0.2361865 0.39522588
0003d0 7a be e4 3c 86 f2 2f 3f 3f de b0 bd 54 bf 31 3e
       0.027922858 0.68729436 -0.0863614 0.17358142
0003e0 b6 2b 17 40 fb b4 15 bf d0 42 c2 3e 8b 72 4b bd
       2.362043 -0.5847928 0.379416 -0.049669784
0003f0 d2 64 9d 3e 07 56 84 3d 24 0d 19 40 48 80 e7 3e
       0.30740982 0.06461721 2.391427 0.45215058

hidden_to_output.bias f4 [5]
000000 75 77 02 3e 8e a6 de 3c c8 a9 a2 3e f7 ad 3f be
       0.12740882 0.027179029 0.31770158 -0.18718706
000010 80 55 d2 bc
       -0.025675535
