nn_base/net_v1.model (torch, 45438 bytes, 6 tensors)

input_to_hidden.weight f4 [128, 16]
00000000: ebd7 303f fe46 5bbe 6f2c 80bf 0d77 253f
00000010: 6621 c13b 100c 09be 67c7 0e3f 224f 0fbf
00000020: d41d e93e c1d5 21be ef79 3b3d 770b 21be
00000030: bc2b de3e eca0 e6be a8d0 f93e 5da7 acbe
00000040: 3ceb 003f 0cb6 0a3f 099f 04bf bfaa 58be
00000050: 9631 113e a964 e63d 5db1 afbe 5235 fb3e
00000060: 5a11 d9bc b4ef 6a3d 7c1e 68bf f24b 67bc
00000070: b931 5c3f 40bc 1c3f 2d5b 923e dedd 943f
00000080: 5eaa 083f 47d6 65be 4769 dc3e 4397 103f
00000090: f7c0 dfbe f7ea 81bf 011d 893f 04f6 f1be
000000a0: ec74 8b3e cdf7 2d3e 2fb9 073f af31 95bf
000000b0: 5bc6 c83e 2fb6 2bbf fb4f 0bbf 0797 e2be
000000c0: 6253 2f3f 1a93 d73e 9529 113f d993 533f
000000d0: 8fb3 ff3d 8f6e 253f f749 01be 7240 883d
000000e0: 76fe c83e 708f 6abf 798f 3e3f 4ef2 0bbe
000000f0: 65eb 133f ac39 5e3f b2f3 c73e 6c24 cd3d
00000100: a410 163f 87c8 e93d 7eee 70bf 7c96 84bf
00000110: 0302 24bf 42ae 9bbe b3b7 fc3e 1093 ee3e
00000120: 0ebc b73e 0377 b1bc 2b5f 003d c594 e6be
00000130: 3f41 3d3e 4054 64be f6bf 72be 3080 a23e
00000140: 64c1 d6bd 36ba 8f3c c6b8 17bf 1bbb 8dbe
00000150: c304 23bf 7f68 b63f 5cd4 6e3e 77c6 8bbc
00000160: 8ee4 a43e 383b 063f 93cb 3dbf fdb3 0c3f
00000170: 2562 58bf 4e3b ca3e 1de0 e63d 9564 213f
00000180: d802 2ebe a1f7 373d aab6 3d3f c3e6 b63e
00000190: c974 793e 01d5 c03e 3c98 23bf 4765 4a3f
000001a0: 1057 0abf 4db0 31bf f990 d93e 9338 37bf
000001b0: 48ae 5c3f a98d 383f d5ec 893e 3da7 7cbe
000001c0: 5579 05be ef2c 97be c6cf 5e3e 430c ca3d
000001d0: 3830 233e 8e4f 373e 5889 f53e 9172 d4be
000001e0: 5bc3 c13b 4246 13bf 9452 6abd 48b1 c63e
000001f0: 43ca 383f 1e84 21be 99df 7dbf 80ea c73d
00000200: a79c 14bd a31c e43d 25a8 e63e 7e4a 793e
00000210: 0954 0fbf 9a35 433f 1de1 2dbf 3f93 bfbd
00000220: 72e2 e93e b389 b0be 6dca da3d fa56 2b3f
00000230: 1122 893f 86d8 9abf 6257 c5bf 7b57 bf3f
00000240: 7642 18bf a2b3 333e 7e21 543f 3095 613e
00000250: 7201 b83e 384b f93c b18b 0dbf 286b 643f
00000260: b9f1 79bf 485a bc3e 1805 57bf 0238 30bf
00000270: 2a98 283e 4f87 5abc b0e0 a83e c131 2f3e
00000280: 3db0 253f c543 2abf 110b 17bf 25aa 14bf
00000290: ac28 bd3d 4bf9 85bf df41 71be 8ff1 8abe
000002a0: 10b0 a83e 4c53 76bd b721 453f 33e8 f73e
000002b0: b243 1c3f 4b6a 2b3e dc46 f9be c4e5 d9be
000002c0: 26bb 66bf 57c0 093f fe7f ec3e 5161 b33e
000002d0: e1bd 80bf b961 ff3e ea03 b6bf 8769 cb3e
000002e0: e42a 07bf 5043 973d 5642 ef3d 63a8 b63e
000002f0: 257f 253f c3ec 7cbf ac94 29bd 71c3 5e3f
00000300: 0dd4 3dbf 086f 2c3e 6c5b d5bb 5182 cebe
00000310: 52ee e0be f3da 4e3f ea7c 1d3f 5d3b e5be
00000320: 1c30 d5be 7ee1 01bf d763 00bf d67b a73f
00000330: 3f6a 9e3e 0b43 d93e 888e 0c3d 074c b33e
00000340: af1b f83e 86bc 953e 23e4 5e3f 497d 713f
00000350: 444c 5c3c cb83 1cbf 558f bfbd bdb2 0c3e
00000360: b6fb 553f bdf5 a5be 6de1 893d 00c1 59be
00000370: b765 bebe 1afa d03e e5ab e53e e620 833f
00000380: 815b 37bf 624f 1e3f a015 3e3c 1f9c 8ebe
00000390: 1d98 8fbf d333 93bd bcf4 5a3d 481a 39be
000003a0: 6d5b b0be 5f16 103e 8800 653e 6c9e e13e
000003b0: 1b69 8d3e 7025 b33e 0ce3 80bf 4342 18bd
000003c0: c77f 323d c42f a83f 3007 8abf 7f85 e1be
000003d0: f2dc 4a3f 119b 3ebf 9221 b5be 608a 87be
000003e0: de34 0e3f 50f8 ab3e 3190 3cbf 7e32 e1be
000003f0: 1af4 323f 485c d0be 2a7d 113e 7d0f 8d3e
0.69079465 -0.214138 -1.001356 0.6463478 0.005893874 -0.13383508 0.55773014 -0.5598012
0.4553057 -0.15804197 0.04577058 -0.1572703 0.43392742 -0.4504465 0.48792005 -0.33721438
0.5035894 0.5418403 -0.5180517 -0.21158884 0.14179072 0.11249668 -0.34315005 0.49064118
-0.026497532 0.057357505 -0.90671515 -0.014117228 0.8601337 0.61224747 0.28585187 1.1630208
0.5338496 -0.22445022 0.4304907 0.5648081 -0.43701908 -1.014983 1.0711976 -0.47258008
0.27237642 0.1698906 0.5301694 -1.1655787 0.39213833 -0.67074865 -0.54418916 -0.4425585
0.6848661 0.42104417 0.56704074 0.8264747 0.1248542 0.64621824 -0.12625872 0.06652917
0.39256638 -0.9162512 0.7443767 -0.1366665 0.5778106 0.8680675 0.39053112 0.100167125
0.5861914 0.11415201 -0.9411391 -1.0358424 -0.6406557 -0.30406386 0.493589 0.46596575
0.35885662 -0.021663195 0.03134076 -0.45035377 0.1848192 -0.22297764 -0.2370604 0.31738424
-0.10486105 0.017544847 -0.59266317 -0.27681813 -0.6367914 1.425064 0.23323196 -0.017062409
0.32205623 0.5243411 -0.74138755 0.5496214 -0.84524757 0.3949837 0.11273215 0.630441
-0.16993272 0.04491389 0.7410685 0.35722932 0.24360956 0.3766251 -0.63904166 0.79060787
-0.54039097 -0.6940964 0.42493418 -0.715707 0.8620343 0.72091156 0.269385 -0.24673171
-0.13034566 -0.2952647 0.21758947 0.0986562 0.15936363 0.17901441 0.47956347 -0.41493657
0.0059131808 -0.5752908 -0.05720766 0.3880713 0.72183627 -0.15773055 -0.9916931 0.09761524
-0.036282208 0.111382745 0.4505016 0.24344823 -0.559876 0.76253664 -0.6792162 -0.09354257
0.45680577 -0.34480056 0.10683141 0.6692959 1.0713521 -1.2097328 -1.5417292 1.4948572
-0.5947641 0.17548993 0.82863605 0.22029567 0.35938603 0.030431375 -0.5529128 0.8922601
-0.97634465 0.3678763 -0.8399215 -0.6883546 0.16464296 -0.013337924 0.32983923 0.17108823
0.64722043 -0.6650966 -0.5900126 -0.5807212 0.09236273 -1.0466703 -0.23560284 -0.2713742
0.32946825 -0.06013803 0.7700457 0.4841934 0.61040795 0.16739766 -0.48686874 -0.4255811
-0.90129316 0.5380911 0.461914 0.35035184 -1.0057946 0.49879244 -1.4219944 0.39728948
-0.5279982 0.07385886 0.116825745 0.35675344 0.6464713 -0.9879877 -0.04140155 0.8701697
-0.7415169 0.1683923 -0.0065111425 -0.403338 -0.43931824 0.8080284 0.6151873 -0.44771853
-0.41638267 -0.507347 -0.50152344 1.3084667 0.30940434 0.42433962 0.034315616 0.35018942
0.4845862 0.29245394 0.8706686 0.94331795 0.0134459175 -0.611386 -0.0935351 0.13740058
0.83587205 -0.32414046 0.0673245 -0.2126503 -0.37186977 0.40815812 0.44857708 1.0244415
-0.71624 0.6183988 0.0116018355 -0.27853486 -1.1218296 -0.07187619 0.053456053 -0.18076432
-0.34444752 0.14071034 0.22363484 0.4406618 0.27619252 0.349895 -1.0069289 -0.037172567
0.04357889 1.3139577 -1.0783443 -0.44047162 0.79243386 -0.7445536 -0.35377175 -0.2647276
0.5554942 0.33587885 -0.7365752 -0.43983835 0.6990372 -0.40695405 0.14207903 0.2755088

input_to_hidden.bias f4 [128]
00000000: e5ca 133f 9c4f b23e b4f2 313e 4d21 ed3d
00000010: 2920 0c3e 7947 20bc b6c6 a43c 23ab ce3e
00000020: 8ace 0abe 1b83 023f a8ed 90be 9e43 403d
00000030: 7947 47be 0bcd c83e 7a6a f73d b1b4 4bbe
00000040: 94c4 7e3e 7710 17be e058 25be 67d2 0a3e
00000050: eed3 423e 1f9b 09be c118 fb3e 3b87 803e
00000060: ccc6 8fbd 84ee 4dbe f915 f33b 6ad9 5a3e
00000070: ca8c aa3e 0778 193e 47cc dc3e d83a 2d3e
00000080: ba64 b03e 51d5 1abe af07 fb3d 0762 593e
00000090: 91f2 d13e 6127 4ebd b740 93be 514c 533e
000000a0: 62c1 e83e b048 f53e b34c 0c3e 0e8b dbbc
000000b0: cf62 223e 46ec b03e 93e2 94be 4f53 503e
000000c0: 2f4a dc3e c7c7 c93e 619e 4dbe e4ef 5bbe
000000d0: 055d d13e 4db3 053f 81e2 c73e b481 b23e
000000e0: 5ffb 9fbc a340 21be fe93 d7be 09a6 8e3d
000000f0: 5890 61bd a479 b03d aca9 57be c3f8 b33e
00000100: 04f0 1b3e 7465 fa3e ec74 0a3f f509 cdbe
00000110: a230 8f3e d075 ee3e 5fb7 693e 38e1 123e
00000120: 05fa 5fbe 1268 fa3e 5e8b 47be dee5 6e3e
00000130: 53e7 2ebb 9415 773e 2179 383e 9374 c73e
00000140: 40d3 ed3c 7f78 953d d9e3 133e b0a1 843d
00000150: 14eb bb3e 0b0b 543d 5fe6 a3be 72ec 313e
00000160: 970b 9d3e 1065 b73e 246f 803e c0a0 f33e
00000170: b88f 103f 727a f83d ab30 803e 2e61 a5bd
00000180: 1ea1 fd3e 52ab b23d 77a7 bf3e d716 b53e
00000190: c472 21bd 0b98 023f 188a e1bc e85c ec3e
000001a0: ce08 7fbd dff3 4c3e 7dee 66be fcda 9c3e
000001b0: c25f 09be 7bfd 053f ab9b ac3e a8d9 da3e
000001c0: 6763 ee3e 77e8 e83c f224 fa3d 5a6a b33e
000001d0: 2988 073d e7e1 6d3d 6ec0 adbd c54e 673e
000001e0: 3687 963e 8612 c13d c71a c73e c4aa 003e
000001f0: 6e14 00bd 4991 a3bd ce79 b4be 4579 babd
0.5773147 0.34826362 0.1737774 0.11578617 0.13684143 -0.009782665 0.020114284 0.40364942
-0.13555351 0.509813 -0.28306317 0.046939485 -0.19460858 0.39218935 0.12080856 -0.19893147
0.24879676 -0.14752375 -0.16147184 0.13556825 0.19026157 -0.1343808 0.49042323 0.25103173
-0.07020339 -0.20110518 0.007418391 0.21372 0.3331054 0.14987193 0.431246 0.16916978
0.34451848 -0.15120436 0.12257325 0.212288 0.41005376 -0.050330523 -0.2876031 0.20634581
0.4546004 0.4790702 0.13701133 -0.026799705 0.15858005 0.34555262 -0.29079112 0.2034428
0.43025348 0.3941023 -0.20079948 -0.2147823 0.4089128 0.52226716 0.39039996 0.3486458
-0.019529043 -0.15747313 -0.42105097 0.069652624 -0.055069298 0.08616951 -0.21060818 0.35150728
0.15228277 0.48905528 0.5408466 -0.4004666 0.2796679 0.4657426 0.22823857 0.14343727
-0.21872719 0.48907524 -0.19486758 0.23329875 -0.0026688173 0.24129325 0.18014957 0.38956127
0.029031396 0.072983734 0.14442386 0.06476152 0.36702788 0.051768344 -0.32011697 0.17375353
0.30672905 0.35819292 0.25084794 0.4758358 0.564693 0.121327296 0.2503713 -0.08075176
0.49536985 0.08724083 0.37432453 0.35368988 -0.03941609 0.5101325 -0.027531669 0.46164632
-0.062264256 0.20014904 -0.22551914 0.30635822 -0.13415435 0.52339906 0.33712515 0.42744184
0.46560213 0.02843116 0.12214078 0.35042077 0.033088837 0.058076765 -0.08483969 0.22588642
0.29400033 0.09427361 0.38887617 0.12565142 -0.031269483 -0.07986695 -0.3524918 -0.091051616

inter_layer.weight f4 [64, 128]
00000000: c861 ca3e b348 a3be 31c3 ff3e 6ecb 3dbf
00000010: 75c5 723e 5103 efbe 2e4c 803e f284 3f3d
00000020: 5fef 37bd cf39 6e3e de36 043e 3cfb 453e
00000030: b40d f1be b338 9dbd 3286 98bd 5010 40be
00000040: 24a0 143e e434 443f a623 8f3c d83c 063f
00000050: 29dd 7d3d 0c77 0ebf 9b00 d8be c317 383e
00000060: 9e83 073e d241 3d3f 7fb4 bb3e 4d55 e43e
00000070: d4a5 dd3e 3899 063f 7057 9bbd c600 c03e
00000080: 56a5 233e 6170 8f3d 29b6 61be 08d5 98be
00000090: 4ff1 0c3c 076c 37bf 623b 3bbe 9879 453e
000000a0: 5eae 11be 878a 623e c5eb a4be 328c 2fbc
000000b0: 9c94 b33e b090 aebe fc0d f93e 6f25 26bb
000000c0: 33b6 833e 2c82 5d3e ca13 72be 0f66 31be
000000d0: e6cc 7c3e a593 68bd 9821 71be 3e04 85be
000000e0: 6658 f2be e5c9 8abb 067d a43e 2201 903e
000000f0: 25bd 3d3f b239 c8bd 4948 f03c ead8 263e
00000100: ed11 8bbe 0752 273e 78bc 99be 9475 963e
00000110: a046 393e 1454 c23e 9ca2 3cbe 4664 833e
00000120: bdcf 67be 31b5 943e 1aaa d33e aebd b73d
00000130: a437 15be 96f6 483e 0c29 823e 7dbd adbe
00000140: d2e0 dabd 3e07 d73e dfd2 d83e 5e1b a63e
00000150: e6fa a5bc 6efc ab3d f1fa ec3c d059 49be
00000160: aca2 20be ff52 87be 38dc abbd e872 7b3c
00000170: 1a05 2f3e ef91 16be 2bd0 b0be 5065 43bd
00000180: 5986 b43d 9b40 a0bd 6e33 2d3d 6b33 093c
00000190: d632 b3be 1c54 98be ebd1 773d cd0d aabd
000001a0: 59cc c3be ae3e 8b3c 8ea4 003f 9b54 a6bd
000001b0: c4af 8fbe d37b edbe 4189 b13e 10f8 de3d
000001c0: 13d8 553d 8111 d7be 2c35 06be 5c18 c4be
000001d0: 8386 0cbf 5545 553e a333 9ebe 26e8 cdbe
000001e0: 264f 4c3e d34e a7bd 78f4 a33e 0c3d a03e
000001f0: 3f99 8abe 2821 b5be cd63 823d a5db f3be
00000200: b2eb 29bd 2d06 f03d e64b 903e 83db e93e
00000210: 2a2d 95be 5d85 313d f357 a43e 1474 253e
00000220: 7b6f 363e 9c1d 733d 55e6 673e c848 073d
00000230: 7245 c73e 6d0a b43e 60bc d7bd 2ed2 d43d
00000240: 3ff5 1c3e 9446 33bc b261 853e c799 c73d
00000250: d8a6 3fbe a528 8c3e 11da 793e 6505 1dbf
00000260: 0ec5 933d 4359 ef3e ce53 2fbe 858b 66be
00000270: 1d96 a7be 2cf4 f53c 56ea bdbd 055d e9be
00000280: 7c84 703e 73d4 04be 8b6f ee3d 1c7a 46be
00000290: 82b7 883c dc3b 463e e7ee 183e 3453 2e3e
000002a0: fe97 513e 95f0 58be 09e8 eebe dfeb 803e
000002b0: 528c b83e 306a 1c3e b62a 5e3f 78d5 d1be
000002c0: 2a89 f13d 660b 89bc d0c4 a93d bf8d e13e
000002d0: a69c 613e 0964 723e 8538 31be ed44 a33e
000002e0: 9afe 52be 73de 183e 83a4 47be 6541 4d3f
000002f0: 9620 b63e 3d5e b53e 3b1e c0be 35ae 10bf
00000300: 92fe 28be 37b9 4b3d 5816 9e3e c320 c63e
00000310: 82ea 923e 885d 203e 107c 153e 4933 14bc
00000320: 0586 aebd 6980 aa3d fa9e 7bbe 385c bcbb
00000330: a158 4a3f 8187 aa3e cf0f 8e3e 540c d5bd
00000340: 054a 16bf 1551 873e 5d13 28be 08fc 183f
00000350: ed78 393d b280 0d3f f36d 57bf f02a d9be
00000360: 703e 0abf cece d0be a13d d3be 93fc f33c
00000370: 93be 36be bb56 babe 2ed5 1d3f 8609 59bd
00000380: 3972 fabc 71db 7e3e 0c57 7b3e 9d62 3d3e
00000390: 1519 243f 02ed dd3c faa8 fc3e 64a8 bb3d
000003a0: 6e7b 74bd 6347 b23b db41 1ebf cd1a e7be
000003b0: 8d2c 013f 26a3 983e 5f2f 94bd 4eca a53d
000003c0: d2b7 a2bd c9f7 c5be ea9c 9dbe 1440 7dbd
000003d0: 5554 553e ee54 6ebd 415a 91be 4b42 f03c
000003e0: 838b 5ebe f082 673e cd4e bfbd b993 10bf
000003f0: 2a0e 85be dd05 e33e 661b c6be ce54 c53d
0.39527726 -0.31891403 0.49953607 -0.74138534 0.23708136 -0.46682218 0.2505812 0.046757646
-0.044906016 0.2326424 0.12911555 0.1933412 -0.47080767 -0.0767683 -0.07447471 -0.18756223
0.14514214 0.76643205 0.017473053 0.5243659 0.061978493 -0.556504 -0.42187962 0.17977814
0.13233802 0.7392856 0.36661145 0.4459633 0.4329058 0.52577543 -0.07585037 0.3750059
0.1598104 0.070038565 -0.22042145 -0.2985003 0.008602454 -0.7164921 -0.18284371 0.19284666
-0.14226672 0.22123156 -0.32211128 -0.0107145775 0.35074317 -0.34094763 0.48643482 -0.0025351902
0.25724944 0.21631688 -0.23640361 -0.17324089 0.24687538 -0.05678143 -0.23547971 -0.259798
-0.47333068 -0.0042354935 0.32126635 0.28125864 0.74116737 -0.097766295 0.029331343 0.16293684
-0.27162114 0.16339885 -0.30026603 0.2938658 0.18093348 0.37954772 -0.18421406 0.2566244
-0.2263784 0.29044488 0.41340715 0.089717254 -0.14572006 0.19625315 0.2542194 -0.3393363
-0.10687412 0.41997713 0.42348382 0.32442755 -0.02026124 0.083977565 0.028928252 -0.19663167
-0.15687054 -0.26430508 -0.08391613 0.01534722 0.1709179 -0.14704107 -0.3453382 -0.04770404
0.08814687 -0.078248225 0.042285375 0.008374075 -0.34999722 -0.2975167 0.060502928 -0.083034135
-0.38241842 0.016997661 0.5025109 -0.08121606 -0.28063786 -0.46383533 0.3467503 0.10887158
0.052208018 -0.42005542 -0.13106221 -0.38299835 -0.5489275 0.2082723 -0.3089877 -0.40216178
0.19952068 -0.081693314 0.32022452 0.31296575 -0.27070042 -0.3537686 0.06366692 -0.47628513
-0.041484542 0.11719928 0.28182906 0.45675287 -0.2913602 0.043340076 0.3209835 0.16157562
0.17815964 0.05935441 0.22646458 0.033028394 0.3892017 0.35164204 -0.105339766 0.10391651
0.15327929 -0.01094212 0.26051098 0.097461276 -0.1871599 0.2737476 0.24399592 -0.61336356
0.072153196 0.4674779 -0.17121813 -0.2251416 -0.32731715 0.030023657 -0.09273212 -0.4557878
0.23488039 -0.12971668 0.11642369 -0.19382519 0.016689066 0.19358772 0.14934884 0.17023927
0.20468137 -0.21185525 -0.46661404 0.25179955 0.36044556 0.15274882 0.8678392 -0.40983176
0.1179374 -0.016729068 0.08289492 0.44053456 0.22032413 0.23670973 -0.17306717 0.31888524
-0.20604935 0.14928608 -0.1949635 0.8017791 0.35571736 0.3542346 -0.37523064 -0.5651582
-0.16503361 0.04973718 0.30876422 0.3869687 0.2869454 0.1566068 0.14598107 -0.00904543
-0.08521656 0.083252735 -0.24572363 -0.005748298 0.79041487 0.33306506 0.27746436 -0.10402742
-0.58706695 0.26429048 -0.16413637 0.5975957 0.04528134 0.552745 -0.84152144 -0.4241557
-0.5400152 -0.4078278 -0.41257957 0.029783523 -0.17846136 -0.36394295 0.6165341 -0.052987598
-0.030572044 0.24888398 0.24544924 0.18494649 0.6410077 0.027090553 0.4934767 0.09162977
-0.059688024 0.005440639 -0.6181924 -0.45137635 0.50458604 0.29811972 -0.07235598 0.08095227
-0.07945217 -0.38665608 -0.30783778 -0.061828688 0.20832951 -0.058186464 -0.2838917 0.029328486
-0.21732907 0.22608542 -0.09341202 -0.56475407 -0.2598737 0.4434041 -0.38692778 0.09635316

inter_layer.bias f4 [64]
00000000: aca3 9bbc 41de 013e 246a 003e 09fc c23a
00000010: 2ae8 123c e984 d83d 774a 8abc 576c 063e
00000020: f5e4 a63d eba6 da3d 2665 ab3d 0830 acbd
00000030: c435 50bc c512 de3c 71a5 7b3d 6dd8 c4bc
00000040: cb3c e23d 6ea1 143d 0682 6bbd 6fbb c4bd
00000050: 789c 9d3d 6461 ad3d 532e 1e3e 75ef 42be
00000060: 260a 6b3e 9015 953d bce7 aebc 8e3e 01be
00000070: cc1e 87bc 18a8 f83d a137 a83d baa4 4e3e
00000080: 644b fa3c 75c5 2a3e 742c 7d3e 1007 1e3e
00000090: 2111 c6bd 8e69 f73c 37c0 253e 8747 0e3e
000000a0: 1d3e e43d f604 6f3d 2b1b 073e b522 6f3e
000000b0: 695b 9c3c cda0 903d 1eda 013e e777 7a3e
000000c0: dbe3 213e 5b17 603d cc22 853c 6d88 99bd
000000d0: 3c2a 173e c92b 2dbe 3e53 b03d 9c1b 8a3d
000000e0: 607e 0cbe f789 2a3d 806d 81bb 6682 5dbc
000000f0: a085 203d 14c7 93bc 9b11 7b3d 0d2d 0a3e
-0.018998943 0.1268244 0.1254049 0.0014876138 0.008966485 0.105722256 -0.01688121 0.13127266
0.08149139 0.10676368 0.08368902 -0.08407599 -0.012708131 0.02710856 0.061437074 -0.024028981
0.110467516 0.036286764 -0.057497047 -0.096060626 0.0769586 0.084658414 0.15447359 -0.19036658
0.2295309 0.07279503 -0.021350734 -0.12621519 -0.016494177 0.12141436 0.08213735 0.20180026
0.030553527 0.16676886 0.24723989 0.15432382 -0.09671236 0.0302017 0.16186605 0.13894473
0.1114466 0.05835434 0.13193958 0.23353083 0.019086557 0.0706192 0.12680861 0.24459802
0.15809576 0.054709774 0.016251944 -0.07496724 0.14762205 -0.16911234 0.08609627 0.06743547
-0.13720083 0.04163548 -0.003949821 -0.013519859 0.039189935 -0.018039264 0.061296087 0.13493748

hidden_to_output.weight f4 [5, 64]
00000000: 0e7c 3b3f 89c3 073f 428c 643d 2f32 003e
00000010: 3d1a e83e d9ba 153f 93bc 013f cf4f 8e3e
00000020: 613e 02be 7878 09c0 a3da 8e3e 1a38 d8bd
00000030: e47c 3b3e fa09 d73e a0d0 76bf f699 983f
00000040: d7e9 69be f441 24bf f83b 163e d653 193e
00000050: 36b9 bdbd f42f 0a3f cd54 9abd 5bb1 38be
00000060: 5ab0 8abf 67ac 9c3e 258f 22bf dc71 82be
00000070: b4ba 6abf 0502 07be 8630 cfbe edd5 9abf
00000080: 996b 1dbd a934 bc3e 5592 0b3f 3601 cc3e
00000090: 1576 283f ff52 723e 8198 64bf 4383 2c3e
000000a0: ac07 a83e 8756 5b3e 053e 913d 66de 4dbe
000000b0: 5ac8 62bf 30c0 c33d 6eea c1be 199e 91bf
000000c0: c943 603f 3ba7 c3bf 5a57 80bf 72ff 6d3e
000000d0: f291 b13e 6266 6bbd 9021 a4bf 5ce5 0d3f
000000e0: a7a3 743d e86b 513f a7d9 533e 9001 f7be
000000f0: f366 c9be 2087 c5bf 797e df3e 91f6 89bf
00000100: ee45 80bf 9609 073f 90da d73e cae9 fd3e
00000110: fab3 fcbc 6c40 843e 65e4 f0be c73f 4b3e
00000120: 12db e1bf b995 e53e aaa2 103e 9242 d3be
00000130: 9353 0cbe 2e2a 1e3e 4abd be3e 60e0 c3bf
00000140: f10a e7bf 69bd d63d dc09 013f 39b1 5d3e
00000150: 9c21 1ebf 39d5 e33e df3d 78be 8681 17bf
00000160: 8942 2d3f ea3b 0d3e 1118 e7bf 6fc2 c4be
00000170: 4336 f83e a681 953d e101 a03e 0246 263f
00000180: 21cd c13e 3e85 ac3e 3e01 a33d a3e1 d93d
00000190: c169 32bf 7215 063e 1114 143e 976a 60bf
000001a0: 13a9 01bf f589 063f 45e2 0d3f c335 b23e
000001b0: 4055 673f ce32 e8bf 2541 cfbf 710b 843f
000001c0: 6027 9abf 7abc 443f 3c3c 1940 b822 7fbf
000001d0: a91d 593e 10ea 2abf c38b ce3e f69b 8ebf
000001e0: 3a39 363f d390 8cbf ef40 4b3e 1cf1 15bf
000001f0: 10de 02c0 4016 733f 5d15 a43e 915e 473f
00000200: ff7e 75be b561 d0be 782d 093f a712 4bbf
00000210: a2f3 c9be 147c ef3e cf45 9b3f c3d5 9d3d
00000220: 0ba0 5a3f 4d93 893e 70c9 fa3c d097 08c0
00000230: 4eab f73d 5611 7b3f ed27 0fbe 04cf 873e
00000240: 3e2e 143f 97c5 503f 82a6 e8bf 305d f23f
00000250: 36b7 f4bf 31ac 30bf f507 553f 9589 16c0
00000260: 155a c23e 5306 4dbe 6bfd 133d 4da9 26c0
00000270: 6733 0c3f 772c 0e3f d01f 0bbf b4b5 f3be
00000280: ecf9 823e 0a73 d53e 157a 8f3e f433 13c0
00000290: f998 a73f 93ee 033f 062e 183b 835e 6b3f
000002a0: e914 183e 9fb4 01c0 3911 093e 9340 c33f
000002b0: c0fc 78bf 6a17 303e 1c26 063f 8a13 5fbf
000002c0: a6ab 1f3f a3c5 71be de40 bd3e 76e4 703e
000002d0: 1dbf 7a3f 800a 2ac0 442e 1940 dec8 983f
000002e0: 9635 97bf f0c1 183e 43d5 223f df82 cb3e
000002f0: 79b0 58bc df51 2abf 258f 023f 5ec3 b53e
00000300: 8ea3 bd3f a104 fabf 9cab a93e f683 88bf
00000310: 2460 0b3f ac0e f0bf d9a1 dabf 7a1f 843e
00000320: 3002 e9bd c0d8 173d 7f30 d1be 3e6b 303f
00000330: 23a1 023e 1903 96bf 6ab7 ab3e 1fbe 953e
00000340: 9464 6c3d 35b7 fabd 871c 6340 ae20 0bc0
00000350: e2b3 193e 1b0f 89bf d117 2a3f 3c7a ed3e
00000360: 89e2 893e fca4 f0bf 7e90 b83e e666 143f
00000370: 4e9d 153f d6ec 053f 4ba2 7c3f 9c5c fe3e
00000380: e90c db3e bdda 123f f1d5 043f 286f ef3f
00000390: e1f8 47bf 105a 0dbe 196c 30be 3e19 d6bd
000003a0: ca50 ef3e 9362 f03f e734 f53d 7fd4 28c0
000003b0: 360b ec3e 80b9 183e c376 3dbd 5cc6 d33e
000003c0: 3cb3 c03f 1a1e 95be d6f9 1ac0 7298 de3e
000003d0: 3cde f1bf 30bd 213f f09d 57bf 1fec 483f
000003e0: 2a84 0b40 1a10 4c3f 9c5b 49bf 8ceb 9a3e
000003f0: 77e0 563e 2f5a 343e 5c7f c5bf 94ab b23d
0.7323617 0.5303274 0.055797823 0.12519144 0.45332518 0.5848823 0.50678366 0.27795264
-0.12719108 -2.1479778 0.27901182 -0.105575755 0.1830936 0.419998 -0.96412086 1.1921985
-0.22843109 -0.64163136 0.14671314 0.14973387 -0.09263842 0.5397942 -0.07535706 -0.18036406
-1.0835068 0.30600283 -0.6349967 -0.25477493 -0.91691136 -0.13184364 -0.40466708 -1.2096535
-0.03843269 0.36758927 0.5452016 0.39844674 0.6580518 0.23664473 -0.892952 0.16846947
0.32818353 0.21419726 0.070919074 -0.2010437 -0.8858696 0.09558141 -0.37874168 -1.1376373
0.8760343 -1.528541 -1.0026658 0.23241976 0.3468166 -0.057470687 -1.2822742 0.554281
0.059726384 0.81805277 0.20688497 -0.4824338 -0.39336357 -1.5431862 0.43651178 -1.0778371
-1.0021341 0.52749 0.42158937 0.4959243 -0.030847538 0.258304 -0.4704925 0.19848548
-1.764498 0.44840792 0.14124551 -0.41261727 -0.13703756 0.15445778 0.3725379 -1.5302849
-1.8050214 0.10485346 0.5040567 0.21649636 -0.61770034 0.44498613 -0.24242352 -0.5918201
0.6767965 0.13792387 -1.805422 -0.3842959 0.48478898 0.07300119 0.31251433 0.64950573
0.37851813 0.33695406 0.07959221 0.1063874 -0.6969262 0.13094118 0.1446078 -0.87662643
-0.5064861 0.52554256 0.55423385 0.34806642 0.90364456 -1.8140504 -1.6191756 1.0315992
-1.2043266 0.7685009 2.3943014 -0.9966235 0.2120272 -0.667634 0.40341005 -1.1141346
0.7118107 -1.0981697 0.19848989 -0.5857103 -2.0448036 0.94955826 0.3204755 0.7787867
-0.23974226 -0.40699545 0.53585005 -0.79325336 -0.3944369 0.46774352 1.2130679 0.077067874
0.85400456 0.26870194 0.030613631 -2.134266 0.12093221 0.9807333 -0.13980074 0.26525128
0.5788306 0.815515 -1.8175814 1.8934689 -1.9118412 -0.69012743 0.83215266 -2.3521473
0.37959352 -0.20021944 0.03613035 -2.6040833 0.54765934 0.555366 -0.5434542 -0.47599566
0.255813 0.4168933 0.2802283 -2.300046 1.3093559 0.5153591 0.0023220791 0.9194109
0.14851727 -2.0266492 0.13385476 1.5254081 -0.97260666 0.17196432 0.524019 -0.8713919
0.6237129 -0.23610549 0.36963552 0.23524651 0.97947866 -2.6568909 2.3934488 1.19363
-1.1813228 0.14917731 0.6360666 0.39748284 -0.013225668 -0.66531175 0.5099967 0.35500616
1.4815538 -1.9532663 0.3313874 -1.0665271 0.54443574 -1.8754478 -1.7080642 0.25805265
-0.1137737 0.037071943 -0.40857312 0.6891364 0.12756781 -1.1719695 0.3353837 0.29246613
0.057713106 -0.12241975 3.5486162 -2.1738696 0.15010026 -1.0707735 0.6644259 0.4638232
0.26930645 -1.8800349 0.3604774 0.5796951 0.5844315 0.5231451 0.9868514 0.4968003
0.42783287 0.5736502 0.5188895 1.8705797 -0.78114134 -0.13803887 -0.17228736 -0.10454033
0.46741325 1.8780082 0.11972981 -2.6379697 0.46102303 0.14914513 -0.046255838 0.41362274
1.5054698 -0.29124528 -2.4214988 0.43475682 -1.8895946 0.631793 -0.8422537 0.7848529
2.1799417 0.7971207 -0.7865541 0.30257833 0.20984064 0.17612527 -1.5429492 0.08724132

hidden_to_output.bias f4 [5]
00000000: 1319 113e 09bd 813d 25fe 093d 150b 893d
00000010: ff09 dd39
0.14169721 0.06334884 0.033689637 0.06691567 0.00042159852
