nn_more_features/net_mode_features.model (torch, 46892 bytes, 6 tensors)

input_to_hidden.weight f4 [128, 18]
0	0xbc90cda1	-0.017676177
1	0xbf454201	-0.7705384
2	0xbe0e9df7	-0.13927446
3	0x3f17a87c	0.5924146
4	0xbf78d364	-0.97197556
5	0xbf5a2db1	-0.8522597
6	0xbf677494	-0.9041226
7	0xbf75b207	-0.95974773
8	0xbf464602	-0.77450573
9	0x3f5dbd4d	0.86616975
10	0xbdaa9d32	-0.08330764
11	0x3f5cf82f	0.863162
12	0x3d8766f9	0.06611437
13	0x3e43a089	0.19104208
14	0x3e97e492	0.29666573
15	0x3fa574bc	1.292625
16	0x3dc3b92a	0.095568016
17	0xbe1ec3a5	-0.1550432
18	0xbf249607	-0.64291424
19	0xbeba8a45	-0.36433616
20	0xbee70a74	-0.45125163
21	0x3eaf58e2	0.342475
22	0xbef3e872	-0.4763828
23	0xbf1256e6	-0.57163846
24	0xbd93ac78	-0.0721063
25	0xbe94e516	-0.2908103
26	0x3f1efda4	0.62105775
27	0x3e891f80	0.26781845
28	0xbf897db9	-1.0741493
29	0x3f88ef10	1.0697956
30	0xbf5a5e62	-0.85300267
31	0x3e231590	0.15926194
32	0xbe817462	-0.25284106
33	0x3fb15303	1.3853458
34	0x3fa35f6a	1.2763493
35	0xbf006d99	-0.5016723
36	0xbd6f7b1e	-0.058467023
37	0xbe84596c	-0.25849473
38	0xbeb6275d	-0.35576907
39	0xbd44395d	-0.04790627
40	0x3e5faf1a	0.2184414
41	0xbef8cacf	-0.4859223
42	0xbe9e8199	-0.3095825
43	0x3f8fa5fd	1.1222531
44	0x3f70018d	0.93752366
45	0x3ee121ea	0.43971187
46	0xbeeda102	-0.46411902
47	0x3f81e4f4	1.0147996
48	0x3d5f305e	0.054489486
49	0x3f81da31	1.0144712
50	0xbfa32b53	-1.2747597
51	0xbeef789b	-0.46771702
52	0xc01126f0	-2.2680016
53	0x3eeebfef	0.4663081
54	0xbea52a3a	-0.3225878
55	0xbf5132e3	-0.8171827
56	0xbf64ddf4	-0.89401174
57	0x3f0a0598	0.53914785
58	0xbef469b0	-0.47736883
59	0xbf3edeed	-0.7455891
60	0xbed86ee2	-0.42272097
61	0xbf06842a	-0.52545416
62	0x3edbe4f6	0.4294812
63	0xbf6f0e0d	-0.93380815
64	0x3eff6be8	0.49887013
65	0x3ebe1601	0.37126163
66	0x3ebe263d	0.37138548
67	0xbe37b286	-0.17939195
68	0xbf55e19f	-0.83547395
69	0xbfa1d210	-1.2642231
70	0xbff3d2aa	-1.9048665
71	0xbf591343	-0.84795016
72	0xbf6bd44c	-0.92120814
73	0xbf511f6b	-0.81688565
74	0x3ed86fde	0.42272848
75	0xbec8ade2	-0.39195162
76	0x3f520bc6	0.82049215
77	0xbe349698	-0.17635572
78	0xbd73b56c	-0.05949919
79	0x3db50803	0.08839419
80	0x3da1fe02	0.07909776
81	0x3e5211d7	0.20514618
82	0xbeec5da7	-0.461652
83	0x3f1419e1	0.5785199
84	0x3e8b64e2	0.27225405
85	0x3ebe10f3	0.37122306
86	0xbf08ddad	-0.5346325
87	0x3f5eb2d7	0.8699164
88	0xbee07f8b	-0.43847308
89	0x3df21d8b	0.11822041
90	0xbe8d330b	-0.27578005
91	0x3e8bd2ef	0.27309367
92	0xbe9badc2	-0.30406004
93	0xbed4fbda	-0.41598397
94	0xbf6b0a7a	-0.9181286
95	0x3e3a8a3a	0.18216792
96	0x3ef8187d	0.48456183
97	0xbda8827b	-0.08228012
98	0xbdc49003	-0.095977806
99	0x3e49e711	0.19717051
100	0xbe228204	-0.1586991
101	0xbe2dfeaa	-0.16991678
102	0x3f21f62f	0.6326627
103	0xbf2899f2	-0.658599
104	0xbfd8b8fe	-1.6931455
105	0xbf0f811d	-0.56056386
106	0xbf662696	-0.8990263
107	0x3fb944eb	1.4474157
108	0x3d7b4426	0.06134429
109	0xbf768296	-0.9629301
110	0xbf2024f5	-0.6255639
111	0xbec1105a	-0.37707788
112	0xbe33852b	-0.17531268
113	0x3ec05304	0.37563336
114	0xbf1b9d3e	-0.6078681
115	0xbe0a86b6	-0.1352795
116	0x3f3210a0	0.6955662
117	0x3cc00293	0.023438727
118	0x3e70edb9	0.23528184
119	0xbeaabf5c	-0.3334912
120	0x3f8b3c2d	1.0877739
121	0xbf0db36e	-0.5535191
122	0xbcfbdfe4	-0.030746408
123	0x3fb92d46	1.4466941
124	0xbf8e2c10	-1.1107197
125	0x3f02e8d2	0.51136506
126	0x3f601c46	0.8754314
127	0x3f914774	1.1349931
128	0x3cd466b5	0.02592788
129	0x3f032dec	0.51241946
130	0xbe26ad17	-0.16276966
131	0xbf835568	-1.0260439
132	0xbe8273b5	-0.25478902
133	0x3e14d983	0.14536099
134	0x3e22288c	0.1583578
135	0xbb113018	-0.002215391
136	0xbe597547	-0.21236144
137	0xbf150fbd	-0.5822714
138	0xbe4dc30b	-0.20093934
139	0x3f6c7ab0	0.92374706
140	0xbf79a5ea	-0.9751879
141	0x3f4d815b	0.80275506
142	0xbef9ca18	-0.48786998
143	0xbebba16f	-0.36646602
144	0xbe05f2e8	-0.13080943
145	0x3f6736bb	0.9031789
146	0xbfc37f1c	-1.5273166
147	0xbe5ad978	-0.2137202
148	0xbedce2bf	-0.43141744
149	0x3e3f0c83	0.18657117
150	0x3f93e048	1.155282
151	0x3f5dede8	0.8669114
152	0x3ec6d7fc	0.38836658
153	0xbf6bc374	-0.9209511
154	0x3fcd4b79	1.6038657
155	0xbfaa3475	-1.3297259
156	0x3e2c86c2	0.16848281
157	0xbf08d7db	-0.5345437
158	0x3ec02393	0.3752714
159	0xbfb7177c	-1.4304042
160	0xbe39d368	-0.18147051
161	0x3f712fb0	0.9421339
162	0x3f4ab72a	0.79185736
163	0xbe348968	-0.17630541
164	0x3f3c1fc1	0.7348595
165	0xbd8cc722	-0.06873919
166	0xbfbcb594	-1.4742913
167	0x3f86abab	1.0521139
168	0xbe468523	-0.19386725
169	0x3e4d180f	0.20028709
170	0xbe9619fe	-0.29316705
171	0x3f034208	0.5127263
172	0xbd2bf980	-0.04198599
173	0xbeabe6d8	-0.33574557
174	0x3e92eb0e	0.28694957
175	0x3dee3079	0.11630339
176	0xbf4ee85e	-0.80823314
177	0xbe654022	-0.22387746
178	0xbe021412	-0.12702969
179	0xbfd8ddf7	-1.6942738
180	0x3f023c8f	0.50873655
181	0x3e996004	0.29956067
182	0x3f3bad18	0.73310995
183	0x3ebbd872	0.36688572
184	0x3c97c8fa	0.01852845
185	0xbe44cf46	-0.19219694
186	0xbf814c41	-1.0101396
187	0xbf14cf0f	-0.58128446
188	0xbe0d9c56	-0.13829169
189	0xbdcb1636	-0.09916346
190	0xbfb0d13c	-1.3813853
191	0x3f855ac9	1.041833
192	0x3f08d514	0.5345013
193	0x3e7b7d92	0.2455962
194	0x3f0c23ed	0.5474232
195	0x3ecacbbd	0.39608565
196	0x4011e2cf	2.2794683
197	0xbea700ef	-0.326179
198	0x3d941143	0.07229855
199	0x3f442b67	0.76628727
200	0x3c7a27a1	0.015268237
201	0xbeb9334f	-0.36171958
202	0xbefad179	-0.4898794
203	0xbe2406fb	-0.16018288
204	0x3ddef7ac	0.108870834
205	0xbd8dd5a7	-0.069255166
206	0x3eb44b73	0.35213813
207	0x3e0ebcfe	0.13939282
208	0x3e9b683d	0.30352965
209	0x3e22b1f6	0.15888199
210	0xbef5a3a8	-0.47976422
211	0x3f004ab7	0.50114006
212	0x3f8cf4d9	1.1012222
213	0xbed20376	-0.41018265
214	0x3e5a4fe8	0.21319544
215	0xbf7deb81	-0.99187475
216	0x3ea63a78	0.32466483
217	0xbdc6089a	-0.09669609
218	0x3eeca3a8	0.4621861
219	0xbdaccd39	-0.084375806
220	0x3db3a3a0	0.08771443
221	0xbf30fd43	-0.69136447
222	0x3f55844e	0.83405006
223	0x3e6d184c	0.231538
224	0x3f211673	0.6292488
225	0xbf89ecad	-1.0775353
226	0xbf451d01	-0.7699738
227	0x3f7759f6	0.96621644
228	0x3e9f0a24	0.31062424
229	0xbf789a4a	-0.97110426
230	0x3e87fc9f	0.26559922
231	0xbf3d1fce	-0.73876655
232	0xbeabbd51	-0.33542874
233	0x3f80f132	1.0073607
234	0x3f303ce3	0.68842906
235	0xbfc15b6e	-1.5106027
236	0x3f104984	0.56362176
237	0x3f1cde00	0.61276245
238	0x3efbb5ae	0.49162048
239	0x3e65d3da	0.22444096
240	0x3f4253c0	0.7590904
241	0x3f7e61e5	0.99368125
242	0x3c67fc8d	0.014159334
243	0xbfaf1821	-1.3679239
244	0x3f9de99c	1.2336917
245	0xbe50ecae	-0.20402786
246	0xbecf4eb1	-0.40489724
247	0x3f5e7671	0.8689948
248	0x3e77acc3	0.24186997
249	0x3e448c2d	0.19194098
250	0x3f427c5f	0.75971025
251	0x3f89ca47	1.0764855
252	0xbe95deb8	-0.29271483
253	0x3e60c76e	0.21951076
254	0xbcd9c470	-0.026582927
255	0x3f35fcd0	0.71088886

input_to_hidden.bias f4 [128]
0	0x3e285eca	0.16442409
1	0xbe14e7f5	-0.1454161
2	0xbe49b239	-0.19696893
3	0xbd4d9a2e	-0.050195865
4	0x3e5495b7	0.20760237
5	0x3edc680f	0.4304814
6	0x3de0a604	0.10969165
7	0x3ecdd21c	0.40199363
8	0xbd3ab9de	-0.045587413
9	0x3e870ed6	0.26378506
10	0x3eefad45	0.46811882
11	0x3efabe60	0.4897337
12	0x3eb5fa6f	0.35542628
13	0xbe7b5c14	-0.24546844
14	0x3f14cb98	0.5812316
15	0x3ec07528	0.37589383
16	0xbe83f6df	-0.25774285
17	0x3eb0896c	0.34479845
18	0x3edbec14	0.4295355
19	0x3e865f5c	0.26244628
20	0x3ead798d	0.33881798
21	0x3eb9a1da	0.36256295
22	0xbd5a543e	-0.053302996
23	0x3ecea98b	0.40363726
24	0x3ca189e0	0.019719064
25	0xbe559ca1	-0.2086053
26	0xbd815c5e	-0.06316446
27	0x3e57892a	0.21048418
28	0x3e4edbfb	0.20201103
29	0x3de2d0cd	0.11074982
30	0x3d4d1583	0.050069343
31	0xbf2ae39d	-0.6675356
32	0x3f166ecf	0.5876283
33	0x3d2aa507	0.04166129
34	0x3e3f2bed	0.186691
35	0x3d5e9551	0.054341618
36	0x3d5abff2	0.05340571
37	0x3f0f499e	0.55971706
38	0x3c2ae39d	0.010430244
39	0x3ed83fef	0.42236277
40	0x3e23ed45	0.1600848
41	0x3ed57861	0.41693404
42	0x3ebabb9c	0.3647126
43	0x3e6f10a4	0.23346192
44	0x3e4a9d67	0.19786607
45	0x3eee857e	0.4658622
46	0x3d8d45d4	0.06898084
47	0xbe825698	-0.2545669
48	0x3ef26dea	0.47349483
49	0xbd65b2cc	-0.056078717
50	0x3cf6e696	0.030139249
51	0x3e9934aa	0.29922992
52	0x3eadf2d3	0.33974323
53	0xbe27d6ef	-0.16390584
54	0x3ea70d40	0.32627296
55	0xbcfccec2	-0.030860309
56	0x3e243cbd	0.16038795
57	0x3e8da37e	0.27663797
58	0x3d30bf35	0.0431511
59	0xbdfb7094	-0.12277332
60	0x3e0c3b0b	0.13694398
61	0xbe1c2659	-0.15249003
62	0x3cde510f	0.027138261
63	0x3c81ba25	0.015835831
64	0x3d200fa5	0.03907742
65	0x3f113bc0	0.56731796
66	0xbd4ede8b	-0.050505202
67	0x3ee84b98	0.45370173
68	0x3e8c207a	0.27368528
69	0x3e93038b	0.2871364
70	0x3e15f947	0.14645873
71	0xbd340155	-0.043946583
72	0x3e896883	0.2683755
73	0xbe99de7e	-0.3005256
74	0x3eb8a588	0.3606379
75	0x3eabd47c	0.3356055
76	0x3e49bd36	0.19701084
77	0x3ef83813	0.4848028
78	0x3ec7f872	0.39056736
79	0x3f13af97	0.57689804
80	0x3e05c644	0.13063914
81	0x3ec5e5be	0.38651842
82	0xbe7b4469	-0.24537815
83	0xbdc9a765	-0.09846381
84	0x3e957f8f	0.29198882
85	0xbe263f00	-0.1623497
86	0x3ed7aa5c	0.4212216
87	0x3ef70ceb	0.48252043
88	0x3ced5790	0.028972417
89	0x3ecc1ee2	0.39867312
90	0x3e3801bf	0.17969416
91	0xbe311563	-0.17293315
92	0x3d4faf03	0.050704014
93	0xbd837f69	-0.06420786
94	0x3e0be7c0	0.13662624
95	0xbd46ca34	-0.04853268
96	0xbe938659	-0.28813437
97	0x3eb3b87d	0.3510169
98	0x3eece5a0	0.4626894
99	0x3ec76c99	0.3895004
100	0x3ea23f31	0.31688836
101	0x3e218bb9	0.15775956
102	0x3c8adbb7	0.016950471
103	0xbd60399d	-0.054742444
104	0xbe9be53e	-0.30448335
105	0x3ea41e57	0.32054397
106	0x3eebc233	0.460466
107	0x3e9375be	0.28800768
108	0x3e919343	0.28432664
109	0x3e0e00e0	0.13867521
110	0xbd319a19	-0.04335985
111	0xbd0f1cde	-0.03493964
112	0x3ec83d3f	0.39109227
113	0xbe9f8bd3	-0.31161365
114	0x3e5b7190	0.2143004
115	0x3e9fb9eb	0.31196532
116	0x3ecc3f1e	0.39891905
117	0xbbf965dd	-0.00761102
118	0x3ee4ae03	0.4466401
119	0x3e512dd1	0.20427634
120	0x3d3c72b1	0.046007816
121	0xbd7a8a42	-0.06116701
122	0x3c94c9c7	0.018162621
123	0x3e074741	0.13210775
124	0x3cfe6abb	0.031056752
125	0x3eda1972	0.42597538
126	0x3e256464	0.16151577
127	0x3e3c9245	0.18415172

inter_layer.weight f4 [64, 128]
0	0xbec1b416	-0.37832707
1	0xbefaa9d0	-0.48957682
2	0xbf2ba698	-0.67051077
3	0xbf02e72a	-0.5113398
4	0xbe5ad63e	-0.2137079
5	0x3e8ede43	0.27903947
6	0xbf1896db	-0.5960519
7	0x3f1cd57f	0.6126327
8	0x3e74bb06	0.23899469
9	0x3e5612a2	0.20905545
10	0xbdf406b4	-0.11915341
11	0x3e6c772e	0.23092338
12	0x3d6ef710	0.058341086
13	0x3de1294a	0.109942034
14	0x3ed8c9e0	0.42341518
15	0x3f0f83d9	0.5606056
16	0xbcb6d1c6	-0.022316825
17	0xbda38fa3	-0.07986381
18	0x3eb6df8c	0.35717428
19	0xbe47fa95	-0.19529183
20	0x3e8de2c8	0.27712083
21	0xbed0cefb	-0.40782914
22	0xbe6bc67f	-0.23024939
23	0xbddac2ff	-0.10681724
24	0x3dc5a8dd	0.09651349
25	0xbf1a3e26	-0.6025108
26	0xbe71b407	-0.23603831
27	0x3d98df84	0.07464507
28	0x3f08db72	0.53459847
29	0xbe860437	-0.2617509
30	0x3d4f9eb1	0.05068845
31	0x3f15ddc9	0.5854154
32	0x3e84d6d3	0.25945148
33	0x3e65f548	0.22456849
34	0xbd19ffc8	-0.037597448
35	0xbdea1fb8	-0.11431831
36	0xbf1cdac7	-0.6127133
37	0x3ded5d51	0.11590064
38	0xbe9eccdb	-0.31015667
39	0x3d9e275d	0.07722352
40	0x3e9d42d6	0.30715054
41	0x3edc8cb2	0.43076092
42	0x3f0ef823	0.55847377
43	0x3edbc2e1	0.42922118
44	0x3e4ec55e	0.20192477
45	0xbd6043d7	-0.054752197
46	0x3c048631	0.008088634
47	0x3e3fa285	0.1871434
48	0x3ee91ce0	0.45529842
49	0xbe723da8	-0.23656332
50	0xbf23f3af	-0.64043707
51	0x3ea8c3b7	0.3296182
52	0x3e81c4f7	0.25345585
53	0xbd6270e4	-0.055283442
54	0xbe640234	-0.22266465
55	0xbf5c5303	-0.86064166
56	0xbef4ff51	-0.4785104
57	0x3ebc7f67	0.3681595
58	0xbef00815	-0.46881166
59	0x3e4b4d98	0.19853818
60	0x3e341f7a	0.17590132
61	0xbf0d8d2b	-0.5529353
62	0xbd0ae8de	-0.033913486
63	0x3e4289a8	0.18997824
64	0x3e5f88d5	0.21829541
65	0x3df6e978	0.120562494
66	0xbf46f4d7	-0.77717346
67	0x3e824cbc	0.2544917
68	0x3e0f4a68	0.13993227
69	0x3de539db	0.11192676
70	0x3ed79b36	0.42110604
71	0xbea78d43	-0.32724962
72	0x3d146e7a	0.03623817
73	0x3df580d3	0.11987462
74	0xbd676fab	-0.05650298
75	0x3eeed98e	0.46650356
76	0x3f05f55e	0.52327526
77	0x3e898fa9	0.26867417
78	0x3f5c6aac	0.8610027
79	0x3ed3595d	0.41279116
80	0x3ec90aef	0.39266154
81	0xbb3963e8	-0.0028288309
82	0xbe89923d	-0.26869383
83	0x3f19b0c7	0.60035366
84	0x3e2ea7a1	0.17056133
85	0xbc345d6c	-0.011008602
86	0xbea78839	-0.32721117
87	0x3d9c5210	0.0763284
88	0xbe918f0a	-0.28429443
89	0xbe922676	-0.28544968
90	0xbedd2cf7	-0.43198368
91	0x3e32d9e5	0.17465933
92	0x3c25ae07	0.010112292
93	0xbe08f024	-0.13372856
94	0xbed54ef6	-0.41661805
95	0xbee3b1d7	-0.4447162
96	0x3eb55a53	0.35420474
97	0xbdb37f4d	-0.08764515
98	0xbd463d1a	-0.048398115
99	0xbeba4a97	-0.36385033
100	0xbe816f11	-0.2528005
101	0x3f1406c7	0.5782284
102	0x3e58d5d2	0.21175316
103	0xbf08d31d	-0.53447133
104	0xbf0e6d67	-0.55635685
105	0x3e283717	0.16427265
106	0x3eadc898	0.33942103
107	0x3e8d6b68	0.27621007
108	0x3d2a5e01	0.041593555
109	0x3d9e6199	0.07733459
110	0x3ec8c9b2	0.3921638
111	0x3eb760a9	0.35815933
112	0x3ed561ca	0.4167617
113	0x3d8476f1	0.06467999
114	0x3dab5bfc	0.08367154
115	0xba87e8e3	-0.0010369088
116	0xbd27039e	-0.040774934
117	0x3e4ab7cb	0.19796674
118	0x3e877d16	0.2646262
119	0x3e2adf3d	0.16686721
120	0xbe46729a	-0.19379655
121	0x3d7f4245	0.06231906
122	0x3db21375	0.086951174
123	0x3dca56c8	0.098798335
124	0xbde565d1	-0.112010606
125	0x3dfc7faf	0.12329041
126	0x3d9006c4	0.070325404
127	0x3e9c7f98	0.30566096
128	0xbe70700f	-0.23480247
129	0xbdf26991	-0.118365414
130	0x3e7beac2	0.24601272
131	0x3e7076f9	0.23482884
132	0x3b91f564	0.0044543017
133	0xbd87ca08	-0.06630331
134	0xbeec91de	-0.46205038
135	0x3e68e8a5	0.22744997
136	0xbede5341	-0.43422893
137	0x3d17ae47	0.03703144
138	0xbb64b02c	-0.0034895046
139	0x3ea6d1dc	0.32581985
140	0xbe426e13	-0.18987302
141	0x3f100ad0	0.562665
142	0x3f2967e4	0.6617415
143	0x3e2955b4	0.165366
144	0xbe5650bc	-0.20929235
145	0xbe8bc477	-0.27298328
146	0xbc5ddd49	-0.013541528
147	0xbcafcade	-0.02145904
148	0x3e9ee528	0.31034207
149	0x3ea294b3	0.31754074
150	0x3e179206	0.14801797
151	0x3e138f0a	0.14410034
152	0xbf1197fb	-0.5687253
153	0xbfdbb187	-1.7163552
154	0x3e5d075d	0.2158484
155	0x3c0031bf	0.00782436
156	0x3ec963a7	0.3933384
157	0xbe6057fd	-0.21908565
158	0x3e520744	0.20510584
159	0xbf92a861	-1.1457635
160	0x3ca0e15c	0.01963871
161	0x3f416f29	0.7556024
162	0x3c775124	0.015095029
163	0x3f0df48c	0.55451274
164	0x3e22c001	0.15893556
165	0xbdd71766	-0.1050251
166	0x3e86c9a0	0.26325703
167	0xbe4abbec	-0.19798249
168	0x3c8b0636	0.016970735
169	0x3e9323f8	0.2873838
170	0x3ec523d9	0.38503912
171	0x3ebf475b	0.37359127
172	0x3d2169c7	0.039407518
173	0x3e063c62	0.13108972
174	0x3c7eeb9c	0.015559103
175	0xbf0eba59	-0.55753094
176	0x3e9c8db3	0.30576858
177	0xbe6676c3	-0.22506242
178	0xbedbf6ae	-0.4296164
179	0xbea050c3	-0.31311616
180	0x3eb8c8e2	0.3609076
181	0xbedf40fc	-0.43604267
182	0x3c907eba	0.017638553
183	0xbf00505b	-0.5012261
184	0xbdeed4ef	-0.116617076
185	0xbd30b8c9	-0.043144975
186	0x3e56caea	0.20975843
187	0x3e171f1d	0.14757963
188	0xbe8a75da	-0.2704304
189	0xbbf90588	-0.0075995363
190	0xbd2a2cb0	-0.041546524
191	0x3d712987	0.058877494
192	0x3e876ce5	0.26450267
193	0xbee3f010	-0.4451909
194	0xbf1e5155	-0.6184285
195	0xbe0900ad	-0.13379164
196	0x3ef06bef	0.46957347
197	0x3e569784	0.20956236
198	0xbf2eb66e	-0.68247116
199	0x3edf4011	0.43603566
200	0xbf71f62c	-0.94516253
201	0xbe8a70a3	-0.2703906
202	0xbec303c8	-0.38088822
203	0xbe7fddf7	-0.24987017
204	0xbf94e87b	-1.1633447
205	0x3ec4ce38	0.38438582
206	0x3e8990ec	0.2686838
207	0xbeb60e7f	-0.35557935
208	0xbf46cdb0	-0.77657604
209	0x3e915fde	0.28393453
210	0x3f08d4b3	0.53449553
211	0xbf3cbbba	-0.7372395
212	0xba8a4790	-0.0010549892
213	0x3f070a5f	0.527502
214	0x3ce7d4aa	0.028299648
215	0x3dde1fd2	0.10845913
216	0x3f044c94	0.5167935
217	0xbdc07d37	-0.09398883
218	0x3e641db5	0.22276957
219	0xbd802f46	-0.06259017
220	0xbf485b23	-0.78264064
221	0xbfe2f8cb	-1.7732176
222	0xbf2a5d39	-0.66548496
223	0xbf5484b2	-0.83014977
224	0xbf770824	-0.96496797
225	0x3ecfcf5c	0.4058789
226	0xbde30171	-0.11084259
227	0xbd221781	-0.039573196
228	0x3e0ea313	0.13929395
229	0x3f75f42a	0.9607569
230	0x3e35ed2a	0.17766252
231	0x3e4cef7d	0.20013233
232	0xbf0d744c	-0.5525558
233	0x3ea9573d	0.3307437
234	0x3e79501d	0.24346967
235	0xbdefbdf9	-0.11706156
236	0x3f231741	0.6370736
237	0x3ed4e317	0.41579506
238	0x3e240a5b	0.16019575
239	0x3ed3ad01	0.4134293
240	0x3e958ea4	0.2921039
241	0x3e1be961	0.15225746
242	0xbf163b41	-0.58684164
243	0xbec3ebd2	-0.38265854
244	0xbe770927	-0.24124585
245	0xbf0a27ad	-0.5396679
246	0x3f183749	0.5945936
247	0x3f03e1b7	0.5151629
248	0x3ea54459	0.32278708
249	0x3e8bf41f	0.27334687
250	0xbe92468f	-0.28569457
251	0xbf038635	-0.5137666
252	0x3d5a9c34	0.053371623
253	0x3e7cc1c9	0.24683298
254	0x3f3f238a	0.74663603
255	0x3f21012e	0.62892425

inter_layer.bias f4 [64]
0	0x3e616a6a	0.2201325
1	0x3dbe41fb	0.092899285
2	0xbc802f01	-0.015647413
3	0x3e43880a	0.19094864
4	0x3e273f92	0.16332844
5	0xbd9cbc4a	-0.07653101
6	0xbc27099a	-0.01019516
7	0x3e27347b	0.16328613
8	0x3dd3e89d	0.10347102
9	0xbde529c8	-0.1118961
10	0x3d3b1ffa	0.045684792
11	0x3e0abc07	0.13548289
12	0x3ca19033	0.01972208
13	0x3d91f8f2	0.07127561
14	0xbdfc71bd	-0.12326381
15	0x3d825845	0.06364492
16	0x3d2f026c	0.04272692
17	0x3e2f9e7c	0.171503
18	0x3d81e62d	0.06342731
19	0x3d87de54	0.066342026
20	0x3bbb6b2c	0.005719563
21	0x3e84af9d	0.25915232
22	0x3e62a2f1	0.2213247
23	0x3d8be755	0.068312325
24	0x3de950d7	0.11392372
25	0xbde87910	-0.11351216
26	0xbb947061	-0.004529998
27	0x3eaeaae7	0.34114763
28	0x3d1d60b9	0.03842232
29	0x3e0b4b0d	0.13602848
30	0x3dc4b947	0.09605651
31	0x3e29b0b1	0.16571309
32	0x3e3cf81b	0.1845402
33	0x3da6a8b0	0.08137643
34	0x3e95ebed	0.2928156
35	0xbe0575a8	-0.13033164
36	0x3e3f07d5	0.18655331
37	0xbe6f1bfa	-0.23350516
38	0x3e1c3044	0.15252787
39	0x3e47a71d	0.19497342
40	0x3da2cd80	0.07949352
41	0x3e8815a0	0.26579
42	0x3d7dd4ed	0.06197064
43	0x3e3fefaf	0.18743776
44	0x3e0f8bcf	0.14018176
45	0x3daf1424	0.085487634
46	0x3e976a36	0.2957322
47	0x3dabca6b	0.083882175
48	0x3da80bd4	0.08205381
49	0x3dfb2efa	0.122648194
50	0x3eadf17c	0.339733
51	0x3d3f50d1	0.046707932
52	0xbda63a16	-0.08116548
53	0x3db6411f	0.088991396
54	0x3d258cbe	0.040417425
55	0xbe0ed7fa	-0.13949576
56	0x3e0dcbe4	0.1384731
57	0xbd2e9aa8	-0.04262796
58	0x3ec41508	0.38297296
59	0x3e935bd8	0.2878101
60	0x3e3e6373	0.18592624
61	0x3de06e45	0.10958532
62	0x3e3f4b13	0.18680982
63	0x3ca27b7e	0.019834276

hidden_to_output.weight f4 [5, 64]
0	0x3f077b35	0.52922374
1	0xc023ec1a	-2.5612855
2	0x3e22d5b7	0.15901838
3	0xc06c84bd	-3.6956017
4	0x3f10dbed	0.5658558
5	0x3e8fbadd	0.28072253
6	0xbf937606	-1.1520393
7	0xbf2e656e	-0.6812352
8	0x3f1e429b	0.6182038
9	0xc0534f87	-3.301729
10	0xbf01fcb1	-0.507762
11	0x3f208ba4	0.62713075
12	0xbe654076	-0.22387871
13	0xbffcf928	-1.9763536
14	0xc09b98fc	-4.862425
15	0x3e675cbb	0.22593968
16	0x405affb8	3.4218578
17	0x3ec98668	0.39360356
18	0x400cce65	2.2000973
19	0x3df82421	0.12116266
20	0x40a2a96e	5.0831823
21	0x3eb4ba01	0.3529816
22	0x3f1b1a54	0.6058705
23	0x3fc474e7	1.5348176
24	0xc0043a0e	-2.0660434
25	0x3ef049c0	0.46931267
26	0xbe1bbdcd	-0.15209122
27	0x3fb75bb1	1.4324857
28	0x3e0c426d	0.13697214
29	0xbfbed237	-1.4907902
30	0xbf0cca4f	-0.549962
31	0x3f22a37a	0.63530695
32	0xbd9763be	-0.07392071
33	0xbeda1ef7	-0.4260175
34	0x3eaa0ea0	0.33214283
35	0xbfbc23fe	-1.4698484
36	0xbef9c055	-0.4877955
37	0xc07bd23a	-3.9347062
38	0x3e1db227	0.15399991
39	0xc01886e5	-2.3832333
40	0xbfe8ecbb	-1.8197244
41	0xbf7cf28c	-0.988076
42	0xbe0332f9	-0.12812413
43	0x3f85a831	1.0441953
44	0xc086845a	-4.203656
45	0xbf24dc75	-0.6439889
46	0x3f727dc3	0.9472315
47	0xbc024fa4	-0.007953558
48	0xc059b332	-3.4015622
49	0xc092ed04	-4.5914326
50	0x3eea370d	0.45745125
51	0x3edab147	0.42713377
52	0xbe12823d	-0.14307494
53	0x4018fa07	2.3902605
54	0x3e36ec8e	0.17863676
55	0xbf2bde27	-0.6713585
56	0xc079fdcc	-3.9061155
57	0x3ffc1b84	1.9695897
58	0xc0968f87	-4.7050204
59	0xc09737d8	-4.725567
60	0x3eed16ab	0.46306357
61	0x3efceeb7	0.49400875
62	0x3e1ec96f	0.15506528
63	0xc0967d9f	-4.7028346
64	0x3ece91c0	0.40345573
65	0x3fde3db7	1.7362584
66	0x3f531052	0.8244678
67	0x4002734e	2.0382876
68	0x3ecf585d	0.40497103
69	0x3fac79b9	1.3474647
70	0x405c2de2	3.4403005
71	0xc042dc0d	-3.0446808
72	0x3f2b5eb6	0.6694139
73	0x3f1bc238	0.6084323
74	0xc081396d	-4.03826
75	0x3e31fd0b	0.17381684
76	0x3d44f103	0.04808141
77	0x3f7f0e4a	0.9963118
78	0x3fb93bd3	1.4471382
79	0x3ea876dc	0.32903183
80	0xc018365e	-2.3783183
81	0x3ea42fda	0.32067758
82	0xbfca6da1	-1.5814706
83	0x3eac13d4	0.33608878
84	0xbf973ac6	-1.1814811
85	0xbd2a0d67	-0.041516688
86	0xbe98f970	-0.29877806
87	0xbf350eac	-0.7072551
88	0x3fa12cc7	1.259179
89	0xc04a71e4	-3.1632013
90	0xc02f86c2	-2.7426
91	0xbfdaaca8	-1.708394
92	0x3eea8d21	0.45810798
93	0xbfeb6e89	-1.8393108
94	0x3f128ec1	0.57249075
95	0x3ee6d0b3	0.450811
96	0xc0449a4d	-3.0719178
97	0xc08ce450	-4.40287
98	0x3ec0fcbb	0.37692818
99	0x3fb8966d	1.4420906
100	0x3e35d6bd	0.17757697
101	0x40815565	4.041674
102	0x3f0f89f7	0.5606989
103	0x3f987e0b	1.1913465
104	0x404ec43b	3.230727
105	0xc05c5433	-3.442639
106	0xc05ea72a	-3.478953
107	0xbee12abd	-0.4397792
108	0x3f22e8db	0.6363656
109	0x3f505d86	0.81392705
110	0xbec520c6	-0.38501567
111	0x3efe0746	0.49614924
112	0x401289f8	2.289671
113	0x3eeb3976	0.45942277
114	0x3d36dcf3	0.044644307
115	0xc01d96b6	-2.4623237
116	0x3e0931e6	0.13397941
117	0xc0282189	-2.6270468
118	0x3d69dd32	0.057095714
119	0xbe5281ba	-0.205573
120	0x3f672c01	0.9030152
121	0xbfe64d46	-1.7992332
122	0x3f160dee	0.58615005
123	0x409cb766	4.8973875
124	0x3d8e4275	0.069462694
125	0x3ec55c3e	0.38546938
126	0x3eacc0b2	0.33740765
127	0x3f04c0fe	0.5185698
128	0x3f5f84b2	0.8731185
129	0x3e5e1080	0.21685982
130	0xc033c497	-2.808874
131	0xbe23591e	-0.15951964
132	0xc0445604	-3.06775
133	0xbffcb94a	-1.9744046
134	0xbfea7c38	-1.8319159
135	0x3daaf915	0.0834829
136	0xbfac0a31	-1.344061
137	0x3d46587a	0.04842422
138	0xbee55094	-0.4478804
139	0xbe8470b1	-0.25867227
140	0x3e175d8a	0.14781776
141	0xbf2b5497	-0.6692595
142	0xbf8bc627	-1.0919846
143	0x3f3d008c	0.7382896
144	0x3f872439	1.0557929
145	0x3f82fb39	1.0232917
146	0xbe42c353	-0.19019823
147	0x3f26ba64	0.6512816
148	0x3fd13ef9	1.6347343
149	0x3ed30d20	0.4122095
150	0x3e818be0	0.2530203
151	0x3e90f7d1	0.2831407
152	0xbf082366	-0.53179014
153	0xbd3ada85	-0.045618553
154	0xbf90ea2c	-1.1321464
155	0x3eb4c085	0.3530313
156	0xbe88ea55	-0.2674128
157	0x3ea04c77	0.31308338
158	0x3df83a72	0.121205226
159	0x3f0419ff	0.51602167
160	0x3e482e41	0.19548894
161	0xbed87235	-0.42274633
162	0x3f1506e6	0.5821365
163	0xbe84c461	-0.25931075
164	0x3f3bed5e	0.7340907
165	0xbeeab0d5	-0.45838037
166	0x3f5fd149	0.8742872
167	0xbd77b51d	-0.060475457
168	0xbfbac846	-1.4592369
169	0x3e32fb89	0.17478766
170	0xbf03860d	-0.5137642
171	0xbffd3bfc	-1.9783931
172	0x3d113ef3	0.035460424
173	0x3e31316f	0.17304014
174	0x3ee0ea0a	0.43928558
175	0x3f2e91a2	0.6819097
176	0xbead6d7f	-0.338726
177	0x3e1dae8a	0.15398613
178	0x3ecd461e	0.40092558
179	0xc01100bb	-2.2656696
180	0xbda5c418	-0.080940425
181	0x3e2cab39	0.16862191
182	0xbf31b7a7	-0.69420856
183	0xc059ab7e	-3.401092
184	0x3fb17189	1.3862773
185	0x3fee42df	1.8614157
186	0x3e94db21	0.29073432
187	0x3f355c07	0.7084355
188	0x3f170c6b	0.59003323
189	0x3f1e23aa	0.6177317
190	0x3e87b26c	0.26503313
191	0x3edfbfb6	0.4370095
192	0xbffdd5ef	-1.9830912
193	0xbfbd3e06	-1.4784553
194	0x3e9ae7b1	0.30254892
195	0x3f95c2ef	1.1700114
196	0x405fb919	3.4956725
197	0xbe963610	-0.2933812
198	0x3f88f873	1.0700821
199	0x3b9fb667	0.004874039
200	0xbfda9401	-1.7076417
201	0x3e03ecad	0.12883253
202	0x3cb32884	0.021869905
203	0x3f2ca211	0.67434794
204	0xbd05e852	-0.03269226
205	0x3f649fed	0.8930653
206	0x3f3033bc	0.6882894
207	0xc0328b52	-2.7897534
208	0xbfcbfb95	-1.5936152
209	0xbfff65ce	-1.9952943
210	0xbfe5c6b5	-1.7951266
211	0x3eee96ce	0.4659943
212	0xc0512f8c	-3.268527
213	0x3e092870	0.13394332
214	0x3e1d3812	0.1535342
215	0xc0892d09	-4.2867475
216	0xbe69222e	-0.22766945
217	0x3ecbc363	0.39797506
218	0x3edd74a6	0.43253058
219	0x3eee31cf	0.46522376
220	0x3ec0c92a	0.37653476
221	0x3ec83012	0.39099175
222	0xbe67e43b	-0.22645657
223	0xc062a874	-3.5415316
224	0x3e4a8110	0.19775796
225	0xbcf5d1c4	-0.03000725
226	0x3dc3188b	0.095261656
227	0x3efc69f0	0.49299574
228	0x3f3c883e	0.7364539
229	0x401bab29	2.4323218
230	0xc01237d1	-2.2846568
231	0x3eb27b1c	0.3485955
232	0x3ed8a6bf	0.42314717
233	0x3e40cf84	0.18829161
234	0x3f206f73	0.6267006
235	0x4020f63e	2.5150294
236	0x3e6786bb	0.2260999
237	0x3eeb0204	0.45899975
238	0x3e8b2d0a	0.271828
239	0xbf01de0d	-0.5072945
240	0x3e91e58b	0.2849544
241	0xbea06d34	-0.31333315
242	0x3e86073d	0.26177397
243	0x3fcfe501	1.6241761
244	0xbe0eff65	-0.13964613
245	0x3ec584e2	0.38577944
246	0x3f6ab033	0.9167511
247	0x3f8c4e37	1.0961369
248	0xbf9a00d2	-1.20315
249	0xbfecb2c3	-1.8492054
250	0x3e90a64d	0.28251877
251	0xc033f3b0	-2.8117485
252	0xbe9a7bd6	-0.30172604
253	0xbff16c4f	-1.8861178
254	0xbe5c561b	-0.21517222
255	0xbe3ec3a7	-0.18629323

hidden_to_output.bias f4 [5]
0	0x3ead89db	0.33894238
1	0xbe24bff7	-0.16088854
2	0x3dd1f143	0.10251095
3	0x3d626432	0.055271335
4	0xbd293029	-0.041305695
